student.pt (torch, 5903 bytes, 8 tensors)

encoder.0.weight f4 [12, 29]
00000000: 4a94 0c3f d7f3 f3be 3f53 82bd f40e 16be
00000010: 0023 5fbe dc68 d8bd 074b 0ebe 71ab 213e
00000020: 0721 9dbe e4f3 8e3e b3f8 25bc 0cab 64be
00000030: 205b dc3d a6a4 e4bd 4f09 cbbd 9f83 263c
00000040: a690 e13d 8e87 1ebd 279c 443d 70ca dbbc
00000050: 2204 1c3e 428d 213d 90f9 213c 9599 41bc
00000060: cc63 11be 0eb6 4abe 633f 213e e76e 1bbe
00000070: eb8b 243e 7d25 44bf 8bc2 ebbc 71ce 40be
00000080: 995e 693d 6b37 4c3e 7f45 c3be 959b 2abd
00000090: f708 493e 27a6 733e 0a9a 8b3d 0288 373d
000000a0: 7726 e5bc 6575 443d 4438 23be e7c5 853c
000000b0: 2cbd 5cbd 28ba b9bd 347d 8f3b 7c23 df3d
000000c0: 531e 96bd ffeb 56ba d257 103e b888 853b
000000d0: 95e6 9ebc 88ce 34bf bc7a 79bd c125 df3c
000000e0: 212e 89bd edef ff3d 01dd 5cbe aeae ccbe
000000f0: d97e 2dbe ca2e 7abd 449e 37be 7e7b 3a3e
00000100: 29b2 d03e 631a 45be f0fe 62be f81c dfbd
00000110: 8527 cabb 1644 80bd 5c60 5a3c 07d1 88bd
00000120: 68aa c33c b80a be3c 88d6 233b d641 383d
00000130: 6948 f03c ebbc 4fbd 71c2 a53d bfbe 28bd
00000140: 681b 8cbd ac76 06bc d4b1 d9ba ce8f dcbc
00000150: 2d22 20bc 06bb a23c f808 f83e 00a6 09bf
00000160: a726 56bf 3431 5dbd a3f5 593d d0ca 923e
00000170: 747f b4be b4d8 e4bb 8420 503d c74c b3bc
00000180: 572a 35be 048a ad3c 482f 963d 03c0 8abd
00000190: fbbd 8ebd 00e5 dd3d 2ec4 1e3c 80b1 dfbd
000001a0: 4ce0 3bbd 11d6 21bd 2328 fa3d 75e9 223e
000001b0: f957 3dbe f02c d3bc 4b45 23be 1a65 d4bd
000001c0: 3c52 ebbc 0c26 5fbd 27cf 09bc c865 843e
000001d0: 1838 1bbe 6aa8 0c3d 2111 413e 51b7 223e
000001e0: 3106 90be 70af 463e 3cb9 78be 9372 cdbe
000001f0: 3112 1b3d 0fcf 2cbd fa16 08bc 569b 9f3d
00000200: 32a4 9ebd fc67 3a3c acd5 2fbc b735 92bc
00000210: 8a3f a4bc 93bf 123a b37c ebbc 6799 443d
00000220: 555a ae3d 5428 d63c f30e f83d 52bd f83a
00000230: f544 18be 414f e23c 0b78 a9bb 18a1 87bd
00000240: 8032 aa3d 2b9d 063d 6159 cf3e 72da bdbc
00000250: 1d1d 2b3f e5db 8c3e 68cd dc3e cbe3 193e
00000260: d574 bc3e 519c 6a3d bebb 653d 285a 0fbe
00000270: 7b33 de3d a91b fdbd 1242 923b 8037 60bc
00000280: 3aed 94bc bbe8 81bd 89f8 0b3e 0872 92bd
00000290: 185e 1f3d 5103 41bd 1b99 b33c 11c7 b3bd
000002a0: 4e13 7e3a 3a95 833b bbc7 533e de5b 1ebe
000002b0: 59ee 553e a4f3 8dbe e241 a73d ff35 b83e
000002c0: b9ab da3d a824 e23e b4a5 95ba 65cb a2be
000002d0: d2a2 573e 5086 003f 0490 323d aafb 813e
000002e0: f21e 1d3e 587d 75be fa53 a03e 2587 413c
000002f0: 9947 51bb 91b5 5cbd a676 59bc 870f 85bd
00000300: fb9c a1bc a2ac d13d 224e 9bbd 2b64 ed3c
00000310: 54b9 f7bd 9e26 943d b0bd 7fbc fb39 ad3c
00000320: eba0 26be 62ed e9bc 421f a6be c3ac 92be
00000330: bf18 9e3d 1bb5 94be 47a3 ad3d c049 00be
00000340: afa1 1ebc 1395 9e3d c854 243f 7766 3a3e
00000350: b469 843d f5b9 cb3c 7920 c33c 3fae 913d
00000360: c292 a7bc 3d65 d33d e973 a6bc 02a4 02be
00000370: 72c9 153d 4cff a4ba 8980 66be d8a0 46be
00000380: 43bb 6fbd f763 46be d3d9 523e 1362 693d
00000390: d01b b03d dd07 863d 76f8 0c3e 76af b5be
000003a0: 6143 12bf 465a cd3e 0902 26be f64f 1abe
000003b0: 5d70 dbbd 76ff fc3d 3659 96be 452b 11bf
000003c0: e1a8 c2bc 810d f43c e00b 96bd a3f8 bc3d
000003d0: 62ca 6fbd ed79 1e3e 9d1b 0cbd aedd b83d
000003e0: 3eca 433e a45b 053d 3ae4 59ba 4781 333e
000003f0: 9e50 ab3d d739 4a3c 540c 163e 6197 a0bd
0.5491377 -0.47646973 -0.06363534 -0.14654142 -0.21790695 -0.10566875 -0.13895808 0.15788056
-0.3068926 0.2792045 -0.010130095 -0.22330874 0.10759568 -0.11164217 -0.09913885 0.010163217
0.110139176 -0.038703494 0.04800048 -0.026829928 0.15235952 0.039441355 0.0098861605 -0.011816402
-0.14198226 -0.19796011 0.15746836 -0.15179025 0.16069 -0.766197 -0.028779289 -0.18828751
0.05697498 0.19943015 -0.3813896 -0.04165228 0.19632326 0.23793851 0.0681649 0.04480744
-0.027972443 0.04796352 -0.15939432 0.016329719 -0.053891346 -0.090687096 0.004378939 0.1089544
-0.07330003 -0.00081986183 0.14096001 0.004075136 -0.01939706 -0.7062764 -0.060908064 0.027239682
-0.066982515 0.12496934 -0.21568681 -0.3997702 -0.1694292 -0.061079778 -0.17931467 0.18211171
0.40760925 -0.19248347 -0.22167563 -0.10894197 -0.006169262 -0.06262986 0.013328638 -0.06680494
0.023884967 0.02319847 0.0024999697 0.04498466 0.029331403 -0.050717276 0.080937274 -0.041197535
-0.06841165 -0.0082070045 -0.0016608783 -0.02692404 -0.009773773 0.01986457 0.48444343 -0.5376892
-0.8365273 -0.054002002 0.053212773 0.2867036 -0.3525349 -0.006983841 0.05081226 -0.021887196
-0.17691933 0.021183975 0.07333237 -0.067749046 -0.0696983 0.10834694 0.009690328 -0.10922527
-0.045868203 -0.03951079 0.12214687 0.1590937 -0.1849059 -0.025778264 -0.15944402 -0.10370846
-0.028725736 -0.054479644 -0.008411205 0.25858903 -0.15158117 0.0343403 0.1885419 0.15890242
-0.28129724 0.19402862 -0.24289411 -0.40126476 0.037859146 -0.042189654 -0.008306259 0.077933
-0.077461615 0.011377331 -0.010732096 -0.017847879 -0.020049829 0.0005598005 -0.028745985 0.04799786
0.08513323 0.026142277 0.12112226 0.001897732 -0.14870055 0.027625682 -0.005171781 -0.06622523
0.08310413 0.03286473 0.40497878 -0.023175452 0.668413 0.27511516 0.43125463 0.15028302
0.36807886 0.05727798 0.056087248 -0.13999236 0.10849663 -0.123587914 0.0044634426 -0.013685107
-0.018179525 -0.06343218 0.13669027 -0.07150656 0.038908094 -0.047122303 0.021923592 -0.08778203
0.00096922077 0.004015592 0.2068166 -0.15464732 0.20891704 -0.27724946 0.08166863 0.35978696
0.10677285 0.44168591 -0.0011417181 -0.31795803 0.21058205 0.50204945 0.043594375 0.25387317
0.15343836 -0.23973596 0.3131407 0.011812006 -0.0031933545 -0.053884093 -0.013272917 -0.06497102
-0.019728174 0.10238005 -0.07583262 0.028978428 -0.120958954 0.07233928 -0.01560919 0.021145811
-0.16272323 -0.028555576 -0.32445723 -0.28647432 0.07719564 -0.29044423 0.08478408 -0.12528133
-0.009682103 0.077432774 0.64191866 0.1820315 0.06465474 0.024868945 0.023819195 0.07113313
-0.020455722 0.10322044 -0.020318942 -0.12757877 0.036569066 -0.0012588291 -0.2250997 -0.19397295
-0.058528196 -0.19374071 0.20590906 0.056978296 0.08599055 0.065444686 0.13766655 -0.3548543
-0.5713406 0.40107936 -0.16211714 -0.15069565 -0.10714791 0.12353413 -0.29364938 -0.5670665
-0.023762168 0.029791595 -0.07326484 0.09227111 -0.058542617 0.15476198 -0.03420602 0.09026657
0.19120118 0.0325581 -0.00083119015 0.17529784 0.08364986 0.012342892 0.1465314 -0.07841373

encoder.0.bias f4 [12]
00000000: 4dd5 6b3f cd39 643f 2577 0bbf 49b8 53bf
00000010: 5883 bb3f 7431 d8bd 4e1b 4c3f d29f 70bc
00000020: 7cf6 ac3f ca48 2640 4edf a73f 8a72 693f
0.92122346 0.89150697 -0.54478675 -0.8270307 1.4649458 -0.105563074 0.79729164 -0.014686542
1.3512721 2.5981927 1.3115022 0.911904

encoder.2.weight f4 [4, 12]
00000000: dfea 8bbe e52b aa3e 8dfa 013e e60d ba3d
00000010: 6a46 0c3f 7260 b6be 92f2 1a3d 35bd 193f
00000020: 482d 563f 3524 2b3f 62e7 813e cfd5 b8bd
00000030: 958a aa3e 2e5e 4dbd 73c9 a4be 7f36 d5bd
00000040: 4295 3d3f c098 debd 20d5 b53d 2802 873d
00000050: cadf f53c 3592 003f 0cb6 c43d 8280 223f
00000060: 7e06 8e3e c63c 2b3f 1a14 47be c5e3 eb3e
00000070: b421 66be 8c46 2d3e 7f5f 6c3f 2bf4 dabd
00000080: bdce 693e 11a1 7c3f ad5b 433f 3ae4 4f3f
00000090: ef86 233f 9855 ad3e cc61 153f 3d2d 233f
000000a0: ba33 803e 3653 51bf 3941 3bbe 5641 a8be
000000b0: efd9 8dbe 1f5f 223f d116 383f aae1 5abe
-0.2732763 0.33236614 0.12693234 0.09084682 0.54794943 -0.35620457 0.03782899 0.6005433
0.83662844 0.6685212 0.25371844 -0.09025156 0.33308855 -0.050138645 -0.32184944 -0.10410785
0.74055874 -0.108689785 0.08878541 0.06592208 0.030013938 0.50223094 0.09605035 0.6347734
0.27739328 0.6688961 -0.19441262 0.46072212 -0.22473794 0.16921443 0.92333215 -0.106911026
0.2283277 0.9868327 0.7631176 0.8120762 0.6387777 0.33854365 0.5835235 0.63740903
0.25039464 -0.81767595 -0.18286599 -0.32862347 -0.27705333 0.63426393 0.71909815 -0.21375147

encoder.2.bias f4 [4]
00000000: ef13 1c3e 5c56 2a3e 40ff 993d c848 693f
0.15241979 0.16634506 0.07519388 0.9112668

decoder.0.weight f4 [12, 4]
00000000: 85b7 4a3f 341f d2be 3d0b 073e 7d84 e4be
00000010: d187 01be bc38 c43e 72ac 673e bbe3 963e
00000020: 7067 6e3e 8806 65bf 7299 833d dd92 123f
00000030: cce8 42be 3515 8e3e 8770 0c3f 4ac1 08bf
00000040: 30c7 30be 8e9d 5bbe 85f7 223e cf62 5dbc
00000050: aec6 0abf 7672 dcbe d681 3e3f d639 a43e
00000060: 090d 553f c527 81be b065 c13e 6614 f7be
00000070: 2f46 dc3e 02ed 283f dba7 6b3e 6974 a1bd
00000080: 2b87 363f 6eef a9be 0a7e 6cbf 77a5 2b3f
00000090: 6492 8b3e 2f00 55bf df06 b53e 9358 213f
000000a0: ac4a c53d 4796 edbc 68bb 93be 9eb6 5e3f
000000b0: f0b5 b2bd 92e6 783d 3cbf b3bd 1ea7 1d3f
0.7918628 -0.4103943 0.13187881 -0.4463233 -0.12649466 0.38324535 0.22624376 0.2947062
0.23281646 -0.8946309 0.06425752 0.57255346 -0.19034117 0.27750555 0.54859203 -0.53419936
-0.17263484 -0.21446821 0.15914734 -0.013512327 -0.5420941 -0.43056077 0.74416864 0.32075375
0.83223015 -0.25225654 0.37772894 -0.4825775 0.43022296 0.65986645 0.2301325 -0.078835316
0.713 -0.33190483 -0.9237982 0.67049354 0.27260125 -0.83203405 0.35356805 0.6302578
0.09633383 -0.029002322 -0.28853917 0.869974 -0.08726108 0.060766764 -0.087767094 0.61583126

decoder.0.bias f4 [12]
00000000: fc2c c4bf 4939 e9be e015 99bf 17f0 d4be
00000010: 0939 c13f 87a7 e8be a0f4 fc3d eb06 36bf
00000020: 92e8 aabe ce10 233f b689 debf 6753 a43e
-1.5326228 -0.45551518 -1.1959801 -0.41589424 1.5095531 -0.45440313 0.12351346 -0.71104306
-0.33380562 0.63697517 -1.7385776 0.3209488

decoder.2.weight f4 [29, 12]
00000000: a3fe b33e 9f41 bcbd bb1f 82be a45c 983d
00000010: 74d6 413f ccf7 f43d 632c 3dbf 8860 453e
00000020: cc28 b9bc 4490 2fbd c029 61be 6d54 433e
00000030: 2419 8e3c 0c52 97be 3173 03bf 0168 0c3e
00000040: 4d0f 133e 958e d13d 52e6 603e e0e3 313b
00000050: 46c5 533d 96c7 f13d 1071 77be 057c b8bd
00000060: 0308 a3bf 4482 4a3e 6072 8a3e f5e4 17be
00000070: 88c4 b7bf 1089 303e b88a 933e e286 193f
00000080: fc35 e33c ff28 dfbe 236b 50be 9cd9 c6bc
00000090: a20b d7bc a1ce c63d e0df 443f 32c1 353f
000000a0: 6eeb 0ebe c387 5a3e 5471 febd 3998 923d
000000b0: 07b9 573e 8936 e5be bd07 11be 793c c0bd
000000c0: 7ec2 debe 39ac 9abe 26d9 9b3d 10ab 40bf
000000d0: 6b4f 8f3f 2758 0f3f 7f0c 173f 937a 7ebe
000000e0: e2d5 a4be b9b7 efbd 454c 2a3e 5592 f8be
000000f0: 0c22 84be edf4 7dbe 82b0 203e e636 263e
00000100: 72a8 2b3f 1942 99be 503c b93e db68 6bbd
00000110: 9086 a93d de79 f5be f08d 683f 6696 01be
00000120: af80 03bf 0d2f 59be 727c 97be 1951 343f
00000130: 4faf 61bc 9d25 fabe 85cb ac3d 55c8 d5be
00000140: baaf fa3e ed25 373f 0afd a3be d80d 763e
00000150: fdee 9e3d ae26 d03e 20f9 513e a46e 433f
00000160: 3269 1e3e 8272 5cbf 69cc d33d 89f4 00bf
00000170: 9702 62bf 1da9 6e3e fef1 d83e 3d1c bc3d
00000180: c541 a53e 164a a83e 9dd2 393f 3589 8f3d
00000190: 63ae b1be 1a54 52be febb a3be 39a0 a03b
000001a0: 2b36 923d 4f25 133e b8c3 7dbf 5407 013e
000001b0: 21a7 063f 8086 773e 00b2 d7be b33b 8d3e
000001c0: 26fa 0ebf 5ca5 673e 58e7 4bbe 297d 23be
000001d0: 893f 4fbe 4c39 2f3b e7bf f73e daf9 4dbe
000001e0: 88d8 fd3c 5fc7 183d 4cd3 9cbd 1fff 903d
000001f0: 6701 cfbe 2cf6 d93d 160d 94bd b289 81bd
00000200: 8812 203e 19a2 0e3e 225e bcbe d913 443e
00000210: 75a0 803d 4478 463d b5a6 213f 4330 f4bd
00000220: dafb c13e 2715 80be f223 163e 4c62 f3bb
00000230: 37d5 37be edbf a5be 5701 4abe 2f4c a33e
00000240: e089 123e cb05 683e 4584 debe 1e6f 113e
00000250: 90f9 11bf 85ab 8d3e 23ff 6f3d a159 bbbe
00000260: 860e 613e a9a4 1b3e e663 4ebe b071 4a3e
00000270: cfef e93d 6ec5 1ebe 0503 e13c 7214 703d
00000280: 90e5 d13a 7a43 ca3d 6fed 70bd 8f81 603d
00000290: 4d51 f53d d144 a43c 178e 90be 3556 7a3e
000002a0: 19e2 093d 2d2f 123e 97e7 203e 852a a6bc
000002b0: 240d 93bd 7567 5abd 3f44 e93c 01bf cebd
000002c0: a87a 0e3d 5d20 73bb 14c5 51be 634d b23d
000002d0: 92e5 743d a99d 1b3e 372c 083e 33d1 a2bd
000002e0: c088 043e 59c8 e2bc 6864 443c e444 44bc
000002f0: 1d30 0a3d e8ab 9bbd 2cf2 28bc 54d2 cbbd
00000300: 49e9 8e3d cf88 35be b88a 99be 0738 6e3d
00000310: 6e3b a23c dce6 ff3d e954 493d ec30 b3bb
00000320: 827c afbc 1c5a 8cbc ea72 823e 51a1 9e3d
00000330: 843f 38bd 66ae 85be d5b3 07be d60a 393d
00000340: fd3e 103e cac6 1b3d 7959 103c b406 cc3d
00000350: 3b9a 22bd 817e 513c 83de 1c3e 9801 813d
00000360: fd8f 43bd 6380 a13e 22ff b13b 6b85 e0bd
00000370: f0b8 d6bd 1cb6 cebc baa2 313e b9db 78be
00000380: 7fec e03c 5552 2dbd 7d80 edbc 0697 77bd
00000390: d947 853c 80a8 dc3d 4629 61be e1bd 883e
000003a0: 0b65 9abe 7897 eabc 9f9c cf3d f346 9abe
000003b0: 65da da3d b5a9 3e3d 2c96 cb3d 3fbe 003e
000003c0: 9eed 3dbd d404 27be 3820 aa3a 0b92 f5bc
000003d0: ad74 273e 3ee3 853c bf8a 77bd a2a5 183e
000003e0: 15f5 843d 0995 09bc ac84 a93c aa13 bebc
000003f0: dcb9 1ebd ee3e dc3d 669f 07bd c404 90bd
0.3515521 -0.09192204 -0.25414833 0.07439545 0.75717854 0.11961326 -0.73895854 0.19275105
-0.022602461 -0.04286219 -0.21988583 0.19075175 0.017345972 -0.29554784 -0.51347643 0.1371155
0.14361306 0.102322735 0.2196286 0.002714388 0.051701806 0.11805646 -0.24164224 -0.0900803
-1.273682 0.19776255 0.27040386 -0.14833434 -1.4356852 0.17239785 0.28816772 0.5997144
0.027735703 -0.43585965 -0.2035337 -0.024273686 -0.026250664 0.0970738 0.76904106 0.7099792
-0.13956997 0.21340851 -0.124239594 0.071579404 0.21066676 -0.4476817 -0.14163108 -0.09386534
-0.4350776 -0.3020952 0.07609777 -0.7526102 1.1196111 0.55993885 0.5900344 -0.24851446
-0.3219443 -0.11704964 0.16630657 -0.48549142 -0.25807226 -0.24800463 0.15692332 0.1623188
0.670539 -0.2993324 0.36178827 -0.057473045 0.08277619 -0.4794454 0.9084158 -0.12655029
-0.5136823 -0.21209355 -0.29587132 0.70436245 -0.013774707 -0.48856822 0.08437256 -0.41754404
0.48962194 0.71542245 -0.3202899 0.24028718 0.07760427 0.4065451 0.2050519 0.763407
0.15469816 -0.86112225 0.103417225 -0.5037313 -0.882852 0.23306699 0.42372125 0.091850735
0.3227674 0.32869023 0.72586995 0.07008592 -0.3470336 -0.20539895 -0.31979364 0.0049019125
0.07139238 0.14369701 -0.9912677 0.12600452 0.5259877 0.24172401 -0.4212799 0.2758461
-0.55850446 0.22621673 -0.1991247 -0.15965714 -0.2023908 0.0026737032 0.48388597 -0.20114842
0.03098704 0.03729951 -0.07657489 0.070799105 -0.40430757 0.10642657 -0.072290584 -0.063250914
0.15632069 0.13929023 -0.36790568 0.19148196 0.06280605 0.048454538 0.63145 -0.11923268
0.3788746 -0.25016138 0.1466215 -0.0074274894 -0.17952429 -0.3237299 -0.19727074 0.3189406
0.14310408 0.2265846 -0.4346029 0.14202544 -0.5702143 0.27669922 0.058592927 -0.3659182
0.21978197 0.15199532 -0.20155296 0.19769931 0.11422693 -0.15505001 0.02746726 0.05861325
0.001601385 0.098761514 -0.058820184 0.054811057 0.119783975 0.020052345 -0.28233406 0.24446948
0.03366289 0.14275809 0.15713345 -0.020283947 -0.07180241 -0.05332132 0.028474925 -0.10095025
0.034784943 -0.0037098147 -0.20485336 0.087061666 0.059789248 0.15196861 0.13298117 -0.07950058
0.12942791 -0.027683424 0.011986829 -0.011979315 0.03373729 -0.07601148 -0.0103116445 -0.09952226
0.06978089 -0.1772797 -0.29988647 0.0581589 0.019803729 0.12495205 0.049153242 -0.0054684784
-0.021421675 -0.017132811 0.25478297 0.077456124 -0.04498245 -0.26109618 -0.13252194 0.04517635
0.14086528 0.038031377 0.008810394 0.09962216 -0.039697867 0.012786509 0.15319256 0.06299132
-0.04774474 0.31543264 0.0054320255 -0.109629475 -0.10484493 -0.02523332 0.17347232 -0.24302568
0.02745652 -0.042314846 -0.028991932 -0.06044676 0.016269611 0.10774326 -0.21988401 0.26707366
-0.30155215 -0.028636679 0.10137295 -0.30132255 0.10686187 0.046548564 0.099407524 0.12572573
-0.046369188 -0.16310436 0.0012979573 -0.029976865 0.16353102 0.01634371 -0.060435053 0.14906934
0.06492058 -0.008397349 0.020693146 -0.023202736 -0.038751468 0.107541904 -0.033111 -0.07032159

decoder.2.bias f4 [29]
00000000: 36aa 1c3f e83d 46be 0902 38bf 4388 6f3d
00000010: bfd9 273f cce5 783f 6983 62be 902e ca3a
00000020: c3ca 5f3e 34c8 8a3e ad98 15be a8b1 063e
00000030: bd85 47be 06c2 9bbe 2c96 8f3d f8cd 48bc
00000040: cad7 31be fd4b 25be c236 433e 22b4 0a3e
00000050: 7c78 e4bd fc8a fa3d 5920 3c3e 05e7 8e3d
00000060: 33ee 8a3e 2bd7 03bd ea86 e9bd 3d41 8abd
00000070: aee8 ca3d
0.6119722 -0.19359553 -0.71878105 0.05847956 0.6556663 0.9722564 -0.22120441 0.0015425254
0.21854691 0.27105868 -0.14609022 0.13153708 -0.19484611 -0.30421466 0.07011065 -0.012256138
-0.17367473 -0.16142268 0.19063857 0.13545278 -0.11155793 0.122335404 0.18371715 0.06977657
0.27134857 -0.032187622 -0.11402686 -0.067507245 0.099076614
