student_kd.pt (torch, 6061 bytes, 8 tensors)

encoder.0.weight f4 [12, 29]
-0.017264849 0.3815675 -0.27738422 -0.6585879 -0.060009796 0.041821185 -0.12191209 0.37521753
-0.10691607 0.37300876 -0.03593053 -0.14177483 0.017583648 -0.1340202 -0.131478 -0.051014505
0.106082045 0.02686618 -0.1103728 0.28161532 0.03693715 0.020379396 -0.0048654606 0.016403483
0.025069967 -0.09186024 -0.04814141 -0.10975391 -0.2711272 -0.74678355 -0.29209232 -0.14466432
0.45839545 -0.10080712 -0.122575454 -0.14018407 -0.25708732 0.05254741 -0.38111532 -0.037770763
0.24760558 0.036340516 0.25807562 0.094902456 0.035054002 0.056288444 0.07123284 0.09149174
0.037349895 0.027858986 -0.05341353 0.027145231 -0.08526384 -0.18810527 0.05063012 -0.10073615
0.2311545 0.5029985 -0.13282827 0.9688439 0.001252429 -0.49882245 -0.2933088 0.037399754
0.36948374 0.23095173 -0.026247498 0.14334768 -0.17832391 -0.07827911 -0.061674472 -0.04286641
-0.28587535 -0.08360885 0.06664703 0.1343504 -0.21256872 0.39622736 0.33769968 0.07597691
-0.05896933 -0.026938912 -0.4882549 -0.21511966 0.11583785 -0.45475018 0.003571827 -0.25897768
0.16357234 -0.03538358 0.2941626 0.18055266 0.049089134 -0.15660761 -0.36741516 0.27419946
0.46491605 0.07948647 -0.027357232 -0.0056335446 -0.13482153 0.07919232 -0.1070205 -0.2114889
-0.05372674 -0.042777818 0.012316524 -0.050422244 -0.050544593 0.044049017 -0.0045104967 0.055703763
0.1451113 0.21093528 -0.009461434 -0.35465828 -0.5545451 -0.03744824 -0.17851534 -0.13207743
-0.26427892 0.30884123 0.08859645 0.2460965 -0.29784104 -0.36285684 -0.07235947 0.072507314
0.064725675 0.21395892 -0.022337215 0.18166476 0.0741627 -0.036031164 -0.035921674 -0.19969714
-0.30152294 -0.048733138 -0.06389819 0.0996521 0.26971442 0.118400194 0.14891374 0.09922109
-0.065135665 -0.20815028 -0.5683716 0.017421898 0.20584938 0.35475054 -0.32309678 -0.36854264
-0.014824875 0.19650647 -0.08727747 0.042780105 0.14803992 0.0067174807 0.11790775 0.09309363
0.086611025 -0.032476038 -0.091388136 0.11706166 -0.17541547 -0.07010662 -0.03223575 0.038141694
-0.014454791 0.0712983 0.101223595 -0.14321995 -0.020769976 0.12549083 -0.41188678 0.67072713
-0.1496813 0.119994804 0.08340823 -0.00027370502 0.070531934 -0.4544697 0.48933184 0.34435466
-0.012282253 0.16393755 -0.12105235 -0.010689947 0.026968691 -0.124741785 0.043750644 0.11836557
-0.011223109 0.38067365 0.009555834 -0.04858512 0.09431546 -0.022236919 -0.29813987 0.08362623
-0.19933593 -0.58933026 -0.70185226 0.44828027 -0.22895057 0.1324116 -0.4758609 -0.43084648
0.23462096 0.09466324 0.1327151 -0.4228717 -0.037006423 -0.011387445 -0.19451004 0.03367194
-0.08119598 -0.08892884 -0.040425513 0.02271228 0.01383443 -0.059062064 0.11410809 0.097848706
-0.050602864 -0.1311294 0.071071446 0.0041495175 -0.042563707 -0.112698264 0.13007155 0.4056815
-0.40865403 -0.11603372 0.2834611 0.005157902 0.0795475 -0.18326664 -0.30782366 -0.16687973
-0.14303012 -0.10013827 0.12824282 -0.096653715 -0.010344655 -0.11593647 0.16665317 -0.10769486
-0.038130037 -0.041938238 0.20783296 -0.17680952 -0.095022924 0.041161068 0.14734994 -0.1125901
00000000: 036f 8dbc d15c c33e 4e05 8ebe 3799 28bf
00000010: d5cc 75bd b14c 2b3d 0cad f9bd 831c c03e
00000020: d0f6 dabd 01fb be3e e42b 13bd 6c2d 11be
00000030: 950b 903c 973c 09be 2ba2 06be 96f4 50bd
00000040: 8b41 d93d 7716 dc3c 220b e2bd e22f 903e
00000050: 694b 173d b1f2 a63c 716e 9fbb 9960 863c
00000060: 885f cd3c 3921 bcbd ed2f 45bd a8c6 e0bd
00000070: 2fd1 8abe 352d 3fbf 208d 95be e222 14be
00000080: cfb2 ea3e f773 cebd d708 fbbd 6a8c 0fbe
00000090: f3a0 83be f43b 573d 8c21 c3be 84b5 1abd
000000a0: 518c 7d3e cbd9 143d 7d22 843e 385c c23d
000000b0: c994 0f3d b68e 663d 86e2 913d 0560 bb3d
000000c0: 34fc 183d 8738 e43c 25c8 5abd ad5f de3c
000000d0: cf9e aebd ab9e 40be 8761 4f3d c14e cebd
000000e0: c4b3 6c3e 82c4 003f 2204 08be 2706 783f
000000f0: 8b28 a43a a865 ffbe 922c 96be 7c30 193d
00000100: f92c bd3e 9c7e 6c3e fe04 d7bc bcc9 123e
00000110: 8b9a 36be cc50 a0bd 5f9e 7cbd b094 2fbd
00000120: 415e 92be 1e3b abbd 3d7e 883d 2793 093e
00000130: 9dab 59be 50de ca3e f9e6 ac3e c899 9b3d
00000140: d389 71bd feae dcbc 8cfc f9be 5448 5cbe
00000150: 653c ed3d 04d5 e8be 5015 6a3b b998 84be
00000160: 827f 273e 5fee 10bd 7b9c 963e cce2 383e
00000170: b011 493d bf5d 20be d71d bcbe df63 8c3e
00000180: 7a09 ee3e cdc9 a23d 461c e0bc 9999 b8bb
00000190: a80e 0abe 952f a23d 902d dbbd 8c90 58be
000001a0: 9210 5cbd cb37 2fbd 3fcb 493c 8e87 4ebd
000001b0: d907 4fbd be6c 343d cacc 93bb a129 643d
000001c0: 0e98 143e 6bff 573e 2104 1bbc c595 b5be
000001d0: abf6 0dbf 5363 19bd bacc 36be 4e3f 07be
000001e0: 914f 87be 7020 9e3e 0e72 b53d b900 7c3e
000001f0: 9f7e 98be 5fc8 b9be 3431 94bd b77e 943d
00000200: e58e 843d 0c18 5b3e 89fc b6bc 5406 3a3e
00000210: 9de2 973d 6a95 13bd 9b22 13bd 687d 4cbe
00000220: 3761 9abe 669c 47bd 0edd 82bd 6616 cc3d
00000230: 0218 8a3e cd7b f23d d87c 183e 6d34 cb3d
00000240: d965 85bd 5925 55be cd80 11bf 5eb8 8e3c
00000250: 2eca 523e dda1 b53e f16c a5be 9fb1 bcbe
00000260: 08e4 72bc fe38 493e 88be b2bd 313a 2f3d
00000270: c797 173e 501e dc3b 9e79 f13d e0a7 be3d
00000280: 1f61 b13d 9805 05bd b429 bbbd 06be ef3d
00000290: 1da0 33be 0f94 8fbd a209 04bd 773a 1c3d
000002a0: cad3 6cbc d804 923d 514e cf3d 40a8 12be
000002b0: cc25 aabc ab80 003e d3e2 d2be c6b4 2b3f
000002c0: 0e46 19be d6bf f53d efd1 aa3d 1180 8fb9
000002d0: 0c73 903d 41b0 e8be b489 fa3e 414f b03e
000002e0: 813b 49bc 3fdf 273e 4bea f7bd e324 2fbc
000002f0: 72ed dc3c 9f78 ffbd e033 333d a669 f23d
00000300: 22e1 37bc a8e7 c23e 1390 1c3c 3101 47bd
00000310: 7728 c13d 332a b6bc caa5 98be 3b44 ab3d
00000320: b81e 4cbe 59de 16bf 97ac 33bf fe84 e53e
00000330: 0572 6abe e896 073e 0aa4 f3be e997 dcbe
00000340: 7a40 703e cdde c13d 78e6 073e a482 d8be
00000350: 0c94 17bd 6892 3abc a42d 47be 97eb 093d
00000360: 144a a6bd 5320 b6bd 3995 25bd 1a0f ba3c
00000370: cea9 623c 10eb 71bd 81b1 e93d e764 c83d
00000380: f344 4fbd c946 06be e88d 913d adf8 873b
00000390: 4857 2ebd 59ce e6bd 7a31 053e 7cb5 cf3e
000003a0: 1a3b d1be 16a3 edbd d021 913e 9e03 a93b
000003b0: cde9 a23d 40aa 3bbe 109b 9dbe 85e2 2abe
000003c0: 7d76 12be 4b15 cdbd 1652 033e 62f2 c5bd
000003d0: a17c 29bc 1a70 edbd 21a7 2a3e 1f8f dcbd
000003e0: 3e2e 1cbd 6ec7 2bbd 2ad2 543e 8e0d 35be
000003f0: 619b c2bd 8298 283d e7e2 163e a395 e6bd

encoder.0.bias f4 [12]
1.1126786 -0.58366585 0.46581498 -0.027017742 1.6835256 -0.6410906 -0.54380256 0.69854647
1.4705576 0.53933734 0.54383224 -0.6731509
00000000: 416c 8e3f 206b 15bf 4d7f ee3e 5054 ddbc
00000010: c47d d73f 831e 24bf a536 0bbf f1d3 323f
00000020: 3b3b bc3f 0312 0a3f 9738 0b3f 9e53 2cbf

encoder.2.weight f4 [4, 12]
0.88934946 0.33971068 0.38023362 -0.18785205 0.3929229 -0.59630954 0.13009351 0.7763559
0.40702814 -0.26689392 0.49256152 0.4648836 0.14403477 0.06805641 0.607897 0.580409
0.6016059 -0.30972743 0.730821 -0.3048586 0.51887167 0.046232328 0.37647817 -0.054830555
0.011076242 0.038890626 -0.105768844 -0.13556658 -0.031989276 0.040273927 -0.26779437 -0.23567414
-0.21738575 -0.25518912 -0.0069372356 -0.003509316 0.04312105 0.70927376 0.52928275 0.070665315
0.33098352 0.6875687 0.18866383 0.22041635 0.40473065 -0.5921283 0.29861492 0.8641588
00000000: 68ac 633f 8fee ad3e fbad c23e 4a5c 40be
00000010: 312d c93e bea7 18bf 3c37 053e 43bf 463f
00000020: fe65 d03e 52a6 88be 0631 fc3e 3905 ee3e
00000030: da7d 133e 2961 8b3d 239f 1b3f af95 143f
00000040: d802 1a3f 9894 9ebe 1617 3b3f 6d16 9cbe
00000050: c6d4 043f 1c5e 3d3d bfc1 c03e 0196 60bd
00000060: 2079 353c c74b 1f3d 569d d8bd f7d1 0abe
00000070: 3007 03bd 46f6 243d 581c 89be 9054 71be
00000080: 5f9a 5ebe 26a8 82be c051 e3bb 8dfc 65bb
00000090: b39f 303d f792 353f 137f 073f fab8 903d
000000a0: ac76 a93e 8104 303f 1731 413e d3b4 613e
000000b0: db38 cf3e b895 17bf 0ee4 983e 8339 5d3f

encoder.2.bias f4 [4]
0.3709309 0.03444289 -0.18178743 1.1073239
00000000: a8ea bd3e fd13 0d3d 7c26 3abe cabc 8d3f

decoder.0.weight f4 [12, 4]
-0.031181483 -0.84155893 0.19120345 0.27907762 0.5441188 0.3387446 -0.4599833 -0.191198
0.41305178 0.080716684 -0.32152718 0.021571588 0.08844108 0.39988983 0.05747824 0.3845932
-0.36321592 0.010295953 -0.016077498 0.7713574 -0.09885831 0.5089343 -0.38568068 0.12540425
-0.9498094 0.6106863 -0.3789014 0.33400467 0.6682145 -0.9894878 0.4934803 0.2322303
0.30232927 0.18188316 -0.25201994 -0.870954 0.5804914 -0.45324105 0.047850784 0.35124853
0.18909909 0.49321353 -0.2906013 -0.90194684 0.80296844 0.20601682 0.11843538 -0.8515663
00000000: 4f70 ffbc 6870 57bf d6ca 433e 43e3 8e3e
00000010: 5f4b 0b3f ef6f ad3e ee82 ebbe 69c9 43be
00000020: 867b d33e ca4e a53d 369f a4be e6b6 b03c
00000030: 9920 b53d 5cbe cc3e 4e6e 6b3d 66e9 c43e
00000040: 70f7 b9be 5bb0 283c f5b4 83bc ae77 453f
00000050: 3a76 cabd 8549 023f f077 c5be f969 003e
00000060: b526 73bf f055 1c3f 5dff c1be a902 ab3e
00000070: 1b10 2b3f 134f 7dbf 73a9 fc3e c8cd 6d3e
00000080: e7ca 9a3e 943f 3a3e c208 81be d7f6 5ebf
00000090: 169b 143f 360f e8be 2fff 433d d9d6 b33e
000000a0: 31a3 413e 7c86 fc3e b2c9 94be fde5 66bf
000000b0: 578f 4d3f 13f6 523e 408e f23d 4000 5abf

decoder.0.bias f4 [12]
1.6739758 -0.10172193 -1.337504 -0.6203436 0.45137712 -1.703109 0.9492126 0.57268524
1.329849 -0.67842543 1.0048223 0.050463524
00000000: d744 d63f 9653 d0bd 5533 abbf d7ce 1ebf
00000010: e71a e73e 7aff d9bf 99ff 723f 809b 123f
00000020: 7e38 aa3f 4aad 2dbf 049e 803f d7b2 4e3d

decoder.2.weight f4 [29, 12]
0.34007046 0.010015404 -0.04050678 -0.49813277 -0.3402489 0.41710645 0.0053801634 0.23121648
0.4939679 -0.036253583 -0.124831036 -0.25574285 0.23821893 0.53615296 0.5079734 0.17250423
-0.39396167 -0.3154705 0.00892138 -0.446919 0.10120811 -0.3634958 -0.0077699074 -0.4365606
-0.65139383 0.14455067 -0.34732288 -0.10091252 0.09833902 -0.5867834 0.51843756 0.40696254
-1.8178449 -0.29995942 -0.1640538 0.38026085 0.46673867 0.2629761 0.3544456 -0.24003899
0.09352117 0.07391566 0.16233243 -0.27812633 0.5308756 -0.0011663161 0.17541385 -1.0729802
-0.20225789 -0.37251395 -0.45200208 0.16060312 0.50174403 -0.5760941 0.19997905 -0.20828561
0.18534008 -0.19564025 0.70373005 0.86386675 -0.7792125 0.25973466 -0.11728456 0.065609865
-0.25255102 -0.025477268 0.10879294 0.3878921 0.8822532 0.15825997 0.6493548 -0.7371232
-0.6352024 0.13511556 0.12432876 -0.03979323 0.022829626 -0.34851536 -0.3280037 0.34286925
-0.9188934 0.12730592 1.9196398 -0.8592529 0.6023247 -0.08084378 -0.08066239 -0.0881537
0.25489658 -0.3499326 -0.53155214 -0.75779057 -0.5323495 0.40356958 0.1817154 0.6740903
0.23273171 -0.21365662 0.044688996 0.06983942 0.35044608 0.6074879 -0.6807611 0.25361982
-0.47378168 -0.65272146 0.48222494 -0.021752179 -0.24661481 -0.17767496 0.15107743 -0.24137412
-0.10954003 0.65911037 0.46746597 0.6467569 -0.73773825 -0.33902904 0.36051047 0.36035022
-0.25924236 -0.06517511 -0.28758714 0.060175408 0.06448899 0.2578262 -0.15275961 0.28432623
-0.15323718 -0.17794916 0.11857959 0.026821876 0.37694582 0.10020563 -0.22928149 0.11285642
0.037238386 0.1297768 -0.31105518 -0.27556092 0.19661716 0.06681472 -0.18817575 -0.1296317
-0.042664364 0.048996754 -0.011706381 -0.11247068 0.005286508 0.061721932 0.08831306 -0.03824775
0.11803493 0.12334659 -0.08761349 0.0040065674 0.37386006 0.05079329 0.24394402 -0.04310692
0.001933728 -0.1016682 -0.05592618 -0.42035404 0.32616556 0.17373894 -0.37995398 -0.09210551
-0.1913416 0.12052646 -0.4678827 -0.12969594 0.17620577 0.3680298 -0.19435965 0.11791352
-0.069308914 0.0030645516 0.05565569 -0.01872146 -0.03722376 -0.10423562 0.18420085 -0.090078145
0.021891115 0.10474327 -0.04890628 -0.16990712 0.2216093 0.1635066 -0.12525284 -0.005846122
0.13330601 0.11983631 0.027408103 0.14014633 -0.07106466 -0.1975878 0.09244596 -0.046784613
0.35296428 -0.047972143 -0.35394803 0.002582447 0.084949434 0.070311695 -0.122124866 0.06245565
-0.021152709 -0.08352211 -0.03943303 -0.027622137 -0.051610097 0.011951739 0.025821982 0.011631038
-0.31614769 0.18751337 -0.76376057 0.10183933 0.07219224 0.2290589 -0.16428839 0.200029
0.22895847 -0.04027676 -0.1899552 0.003769245 0.6145201 0.35429153 -0.1737642 -0.042705756
0.118349686 -0.32133526 -0.09928718 0.14637151 -1.0437261 -0.26686484 0.86169446 0.032913163
0.16305959 0.000872897 0.07004866 0.16025867 -0.049050063 -0.16292493 -0.009026578 0.06291606
-0.040348176 -0.16455615 -0.033099566 -0.009746534 -0.0810561 -0.011055776 0.05968249 -0.0008324856
00000000: b71d ae3e a617 243c 70ea 25bd 420b ffbe
00000010: 1b35 aebe fa8e d53e 154c b03b 03c4 6c3e
00000020: 5ce9 fc3e a37e 14bd 6aa7 ffbd baf0 82be
00000030: aaef 733e 5241 093f 8b0a 023f f3a4 303e
00000040: 58b5 c9be 5985 a1be fb2a 123c 91d2 e4be
00000050: 3346 cf3d 1f1c babe b59a febb df84 dfbe
00000060: bfc1 26bf 1705 143e 4ed4 b1be 39ab cebd
00000070: f865 c93d 7037 16bf 53b8 043f 655d d03e
00000080: 24af e8bf 4894 99be b8fd 27be 8db1 c23e
00000090: 5ff8 ee3e cea4 863e e579 b53e c8cc 75be
000000a0: 0788 bf3d 1861 973d 793a 263e 9366 8ebe
000000b0: 77e7 073f 13df 98ba b09f 333e 6a57 89bf
000000c0: b11c 4fbe 26ba bebe d16c e7be 2575 243e
000000d0: 4c72 003f e77a 13bf 4fc7 4c3e d348 55be
000000e0: cac9 3d3e eb55 48be a727 343f 5f26 5d3f
000000f0: 787a 47bf f1fb 843e e332 f0bd 775e 863d
00000100: 5e4e 81be b4b5 d0bc d5ce de3d cb99 c63e
00000110: 59db 613f e70e 223e 1e3c 263f 1bb4 3cbf
00000120: a09c 22bf bc5b 0a3e 14a0 fe3d 3afe 22bd
00000130: 3205 bb3c 9b70 b2be 1af0 a7be 8f8c af3e
00000140: 993c 6bbf 7c5c 023e c2b6 f53f 00f8 5bbf
00000150: f431 1a3f 6c91 a5bd 5332 a5bd ed89 b4bd
00000160: ce81 823e 5e2a b3be cd13 08bf 90fe 41bf
00000170: 0f48 08bf aca0 ce3e 9a13 3a3e 2f91 2c3f
00000180: 3951 6e3e cdc8 5abe cf0b 373d f807 8f3d
00000190: ab6d b33e 5484 1b3f 5c46 2ebf 75da 813e
000001a0: 8393 f2be c118 27bf 30e6 f63e a031 b2bc
000001b0: 9888 7cbe 6df0 35be 0bb4 1a3e c72a 77be
000001c0: 8656 e0bd 75bb 283f b357 ef3e dc91 253f
000001d0: 6adc 3cbf 3795 adbe d494 b83e d37f b83e
000001e0: 6abb 84be 877a 85bd 9f3e 93be 7d7a 763d
000001f0: ce12 843d cc01 843e 046d 1cbe 3593 913e
00000200: 35ea 1cbe 4e38 36be dbd9 f23d 8db9 db3c
00000210: 0bff c03e 9c38 cd3d c4c8 6abe 4421 e73d
00000220: 4787 183d 36e4 043e a042 9fbe 5216 8dbe
00000230: 0256 493e 28d6 883d 25b1 40be 2cbe 04be
00000240: d4c0 2ebd d2b0 483d 1fcc 3fbc 0757 e6bd
00000250: 713a ad3b 23d0 7c3d 7add b43d aca9 1cbd
00000260: 4cbc f13d 239d fc3d b46e b3bd 8649 833b
00000270: 966a bf3e a00c 503d 76cc 793e e290 30bd
00000280: 2575 fd3a 6b37 d0bd da12 65bd a538 d7be
00000290: 2cff a63e 9fe8 313e 5489 c2be d0a1 bcbd
000002a0: 0def 43be 94d6 f63d 528e efbe 03cf 04be
000002b0: 496f 343e 676e bc3e 3706 47be a57c f13d
000002c0: d5f1 8dbd a5d6 483b 39f7 633d bf5d 99bc
000002d0: f177 18bd 7c79 d5bd 269f 3c3e e47a b8bd
000002e0: ff54 b33c a483 d63d f451 48bd 22fc 2dbe
000002f0: 8ced 623e 466e 273e 4842 00be d390 bfbb
00000300: 5f81 083e bd6c f53d f586 e03c 8582 0f3e
00000310: 598a 91bd 7554 4abe 4f54 bd3d 39a1 3fbd
00000320: bcb7 b43e 707e 44bd ad38 b5be 453e 293b
00000330: f8f9 ad3d 94ff 8f3d 9a1c fabd 7fd1 7f3d
00000340: 7248 adbc a40d abbd 8784 21bd d247 e2bc
00000350: 1c65 53bd 3ad1 433c 9f88 d33c 1c90 3e3c
00000360: 1cde a1be 8103 403e d085 43bf 2391 d03d
00000370: 86d9 933d 6b8e 6a3e 373b 28be 67d4 4c3e
00000380: 1774 6a3e 3ef9 24bd 9e83 42be 7005 773b
00000390: 3051 1d3f b365 b53e 3eef 31be 3bec 2ebd
000003a0: 5261 f23d 0e86 a4be 1457 cbbd 6ae2 153e
000003b0: d198 85bf 82a2 88be 0298 5c3f f4cf 063d
000003c0: 18f9 263e 20d3 643a ac75 8f3d d91a 243e
000003d0: b8e8 48bd cbd5 26be 36e4 13bc 23da 803d
000003e0: 2144 25bd 6881 28be 6993 07bd edaf 1fbc
000003f0: be00 a6bd 4923 35bc a075 743d 2a3b 5aba

decoder.2.bias f4 [29]
1.1668516 0.21387032 0.9112651 0.28822565 -0.7249526 -0.6033389 0.25715822 -0.036147412
0.49910796 0.006536319 0.12038557 -0.013660246 -0.078937836 0.0891479 0.008651959 0.23662904
-0.43895325 -0.19064647 -0.29267946 -0.8354876 -0.13317797 -0.01820402 -0.098903336 -0.27063698
0.27422544 -0.1216179 -0.06574847 -0.018040027 -0.5754733
00000000: 655b 953f d200 5b3e ab48 693f 5092 933e
00000010: 7e96 39bf 6b74 1abf 3eaa 833e 4f0f 14bd
00000020: 148b ff3e 9e2e d63b b68c f63d 39cf 5fbc
00000030: 29aa a1bd 2d93 b63d f2c0 0d3c e24e 723e
00000040: 7bbe e0be d438 43be 15da 95be 84e2 55bf
00000050: ce5f 08be 9920 95bc d58d cabd ee90 8abe
00000060: 4767 8c3e ce12 f9bd 22a7 86bd aec8 93bc
00000070: 3852 13bf
