teacher.pt (torch, 27841 bytes, 12 tensors)

encoder.0.weight f4 [64, 29]
000000 61 ad 5f be 40 55 b5 be 76 7e 7d 3e 4f 33 b7 bd
       -0.21843483 -0.35416603 0.24755272 -0.08945333
000010 81 a9 45 be 06 4c a6 3d 6d 7d 8f 3d fc 4c 9e 3e
       -0.19302942 0.08119969 0.07006345 0.3091811
000020 25 3c a0 3d c6 88 02 3d 52 96 35 3c 7d cc 97 bb
       0.07823972 0.03186872 0.011083202 -0.004632531
000030 75 45 4a 3a 89 aa 8b 3d 49 13 91 3d 98 af cb 3d
       0.00077160384 0.068196364 0.070837565 0.09945601
000040 aa bb d7 bc b5 75 c8 bd 95 98 b0 3d 10 86 0a be
       -0.026334602 -0.09788076 0.08622853 -0.13527703
000050 35 27 13 3e 56 55 8a bd 8b cc 8d bd 00 f8 cb 3d
       0.14370425 -0.06754558 -0.06923779 0.099594116
000060 1f 16 00 bb 1d e4 8a 3c a3 33 c6 bd a3 eb 41 3e
       -0.0019544435 0.016954476 -0.09677818 0.18937545
000070 47 c4 63 3e a0 ba 58 3d 77 ce 5e 3d ae c0 45 3e
       0.22242843 0.052912354 0.05439612 0.19311783
000080 ae a2 d4 bd 27 6d 44 3e bc b5 bb 3d 07 7f 7c 3e
       -0.10382591 0.19182263 0.091655225 0.24657832
000090 c9 fa c1 be 30 c9 9c be b6 18 0c be ed e4 99 3d
       -0.37886646 -0.30622244 -0.13681301 0.07514367
0000a0 a3 95 fd bd 35 e0 e9 bc 72 d1 d5 bd 18 e8 89 3e
       -0.123820566 -0.028549293 -0.10440339 0.26934886
0000b0 23 9c 46 bd 2f 73 2a be f7 1f 73 3d cc 87 67 3e
       -0.048488747 -0.16645502 0.059356656 0.22610396
0000c0 74 15 ff 3d f2 63 b9 be ed e2 42 3e 1b d1 61 bd
       0.12455264 -0.36209065 0.19031878 -0.05513106
0000d0 60 d6 21 3e f1 86 8c 3c 84 28 d4 3c e3 d1 91 3d
       0.15804434 0.017154189 0.025898226 0.07120111
0000e0 40 ba 0b 3e f7 db 3a bd e2 22 d0 be c2 07 92 be
       0.13645267 -0.04561993 -0.40651613 -0.28521544
0000f0 13 4d 62 be e0 b3 68 3d 76 60 4f be fd 18 e7 bd
       -0.22099714 0.056812167 -0.2025164 -0.11284063
000100 db 88 3a be 0b 7f 78 bc 3c 32 62 3e be a8 88 3e
       -0.18216269 -0.015167008 0.22089475 0.2669124
000110 d4 c1 34 3a 53 9e 44 3e 92 13 9e 3c eb 59 31 3e
       0.0006895338 0.19201021 0.019296441 0.17319457
000120 08 9c 56 3d 2d 58 d6 3d a3 12 db 3d 27 6f ab bd
       0.052394897 0.10466037 0.10696914 -0.0837081
000130 cb 3b 37 bd bd 18 97 bd ae cd 48 3e 7a b0 2f be
       -0.044734757 -0.07377765 0.1960971 -0.17157164
000140 da 6e 95 bd f4 e5 10 be ff 6f 1f 3e d8 df f8 bc
       -0.07296534 -0.1415022 0.15570067 -0.030380175
000150 25 38 4b bd 04 37 cb bb cb a8 16 bd fa 65 5a bd
       -0.04961409 -0.0062016267 -0.036782067 -0.05331991
000160 69 55 81 be 79 81 59 3d f7 40 9a 3d b6 7b e4 bd
       -0.25260475 0.05310199 0.07531922 -0.111564085
000170 12 11 15 3e ea 11 95 ba a2 1f 82 be 41 d8 da 3d
       0.14557293 -0.0011373137 -0.2541476 0.106857784
000180 29 14 21 be 62 da 6e bd a2 b3 c9 3d 1a aa 50 bd
       -0.15730347 -0.058313735 0.09848715 -0.05094347
000190 66 00 2d 3e 6a c1 e4 bc 00 ca 9f 3e f3 b3 3a 3c
       0.16894683 -0.027924258 0.312088 0.011395442
0001a0 cc 9d 5e be 77 ec 04 3e 67 54 05 be a2 a8 02 be
       -0.21739882 0.12980829 -0.13020478 -0.12759641
0001b0 43 80 5d 3e 46 b0 0c be 49 2b 9d 3d 18 f9 1f 3a
       0.21630959 -0.13739118 0.076742716 0.00061024865
0001c0 1b c2 b7 bd ee 69 09 3e 24 db 23 3e b3 02 bd bd
       -0.089725696 0.13419315 0.16001564 -0.092290305
0001d0 f1 94 8d bd 4c 41 8e be 7e e8 15 3e 53 4b f5 bd
       -0.06913174 -0.27784193 0.1463947 -0.119772576
0001e0 94 9f d7 3e f5 ea 02 3e 6a 5a 52 3e c5 53 0f 3e
       0.42113936 0.12784941 0.20542303 0.139968
0001f0 3f fb 8c be a8 0b 63 bd f9 7e f3 bd b2 13 4b be
       -0.27535436 -0.05543104 -0.118894525 -0.19831732
000200 61 14 32 bc a4 c1 dc bd fb ce e6 bd 31 ec 66 be
       -0.0108691165 -0.107791215 -0.11269947 -0.22551037
000210 25 67 0c be 2d 83 5b 3e fb 7f 7c bd 4c fb 94 be
       -0.13711222 0.21436758 -0.06164549 -0.29097974
000220 e4 11 f5 bd 7b 5e d0 3c 66 8c 73 3d 3c 05 9d 3e
       -0.11966303 0.025435677 0.059460066 0.30668056
000230 ca 5d 81 be 79 8f 46 3d 2d 90 91 3e 69 26 c7 3a
       -0.25266868 0.04847667 0.2843031 0.0015193942
000240 c3 b5 a1 bc c0 a0 95 be 32 59 7d 3e 35 ee d3 3d
       -0.019739991 -0.29224205 0.24741057 0.10348169
000250 41 e9 6e 3e 00 da d4 3c 1f d5 0a bd 6f 0f 0f 3d
       0.23331167 0.025982857 -0.033894654 0.034926828
000260 3a 3d 81 be fd 39 39 bc ec 1f 94 bd f1 4d 1d be
       -0.25242025 -0.011305329 -0.07232651 -0.15361764
000270 d6 2d 0f 3e ed 90 b5 bd 52 f1 87 3b c9 5c 0f be
       0.13982329 -0.08865533 0.0041486407 -0.14000238
000280 c4 19 94 bd eb df b6 3c 3b d6 6e 3e cd de ef bd
       -0.07231477 0.02232357 0.2332391 -0.11712418
000290 c5 c8 4c bd 21 1f 2b be 96 56 2a 3d 3c 94 03 3d
       -0.049996156 -0.16711093 0.04158648 0.03212379
0002a0 30 53 06 bb 88 17 08 be bf 97 39 3d 31 11 a1 3d
       -0.002049636 -0.13290226 0.045310732 0.07864607
0002b0 23 32 4c 3e 22 02 c8 3d d5 d8 d3 3d 1d 2f 57 3d
       0.19941 0.09766032 0.10344092 0.052535165
0002c0 c6 81 20 3d d5 be b9 3e 44 de 55 3d dd c8 00 3c
       0.03918626 0.36278406 0.052213922 0.00786039
0002d0 40 10 5d bd 86 c1 a6 3d be 13 04 3e 9a d5 d9 3e
       -0.053970575 0.081423804 0.12898156 0.42545778
0002e0 a5 5f a7 3d 67 c3 1b be 0e 7a 09 3d 11 aa 63 be
       0.081725396 -0.15211259 0.033563666 -0.22232844
0002f0 20 42 0d be 9f 40 8e be a1 e5 48 be ab 6b fd bc
       -0.13794756 -0.27783677 -0.19618846 -0.03093513
000300 50 96 e4 bd 36 31 8d 3e 8a da a9 bd 1a d8 c8 3d
       -0.11161482 0.27576607 -0.08293636 0.09806843
000310 46 5e 65 bc 70 b5 91 be 95 ce cd 3d 36 1d 69 3d
       -0.013999527 -0.28458738 0.10049168 0.056912623
000320 1f 47 d7 bd 28 cd ce bd 6d 8a 11 bd 00 54 6b bd
       -0.10511612 -0.10097724 -0.035532404 -0.057453156
000330 b3 23 8f be 5f ea e7 bd cf 3d 98 3d 86 40 f1 bd
       -0.27956924 -0.113239996 0.07433664 -0.11779885
000340 98 03 5a 3e 83 66 0a 3c c8 a6 a3 3e b5 3b be 3d
       0.21290433 0.008447292 0.31963181 0.09288732
000350 cc 59 be 3d b3 9e 5e bd 9a e9 b5 bd d3 76 52 3d
       0.09294471 -0.054350566 -0.088824466 0.05138285
000360 1d 8b 56 be a1 c6 6e bd e6 f4 72 3d 8f 36 b6 bb
       -0.20951505 -0.058294896 0.059315585 -0.005560703
000370 75 2b 07 bd fa cd 87 3d b2 aa 04 be fb 7c 38 3e
       -0.03300043 0.06631084 -0.1295574 0.18016426
000380 38 9f 31 bd b1 33 8f 3d f0 69 59 3e 31 b6 5a 3c
       -0.043364733 0.06992281 0.21231818 0.013349102
000390 f2 af 44 be 59 1f 71 be cd 2b 1a be df 04 90 3d
       -0.19207743 -0.23547114 -0.15055771 0.07032179
0003a0 ce ba 98 3e a2 b0 c8 3d 66 c5 1e bd 58 e3 64 3d
       0.2983002 0.09799315 -0.038762473 0.055880874
0003b0 a0 db 88 be 7b 1c c6 3d b4 bf 46 3e 58 9f a8 bd
       -0.2673006 0.09673401 0.19409066 -0.082335174
0003c0 ac e2 f6 bd aa 44 b3 bd f4 51 07 be 00 36 16 3d
       -0.12054953 -0.08753331 -0.13214856 0.036672592
0003d0 53 a0 cc bc 49 24 73 3e e8 54 09 be 29 96 a5 be
       -0.024978792 0.2374431 -0.13411295 -0.32341126
0003e0 20 31 9e bd e2 4b 32 3e 10 79 58 bc 49 6a 36 3d
       -0.077242136 0.1741176 -0.013212457 0.044534955
0003f0 6a 9b 1d be d4 24 53 3e 70 10 13 3e 28 8f af bd
       -0.15391317 0.20619518 0.14361739 -0.08572227

encoder.0.bias f4 [64]
000000 8e 3d 1a 3d a2 93 27 be 0d 6a b7 be 54 34 97 3d
       0.03765636 -0.16364911 -0.35823098 0.07383028
000010 f5 c3 bb be f6 b4 ca 3e 4e 66 c7 be 5c 59 9c 3e
       -0.3667294 0.39591187 -0.3894524 0.30536926
000020 b5 89 5f bc 1c e5 ac be 21 34 a4 be b1 f8 34 be
       -0.013643672 -0.33768547 -0.3207102 -0.17672993
000030 4e a9 1a 3f 01 a8 19 be b1 ca b1 bd ad 6f 8c be
       0.6041459 -0.15005495 -0.086812384 -0.27428952
000040 a3 d7 7a bc 6f 5e 2b bf 0e bd 08 bf e2 b8 4b 3f
       -0.015310201 -0.6694097 -0.53413475 0.79578984
000050 fc f4 43 be f0 95 1f bf 2a 17 22 bd 95 6e 43 bd
       -0.19136423 -0.6233816 -0.039572872 -0.04771288
000060 43 0a 65 3e 0f 70 90 be bb 66 5f bf 98 7c e5 bb
       0.22367196 -0.28210494 -0.8726613 -0.007003378
000070 50 53 18 bd dc bc 2f be e8 54 b1 3e e9 cc 83 3e
       -0.037188828 -0.17161888 0.3463509 0.25742272
000080 89 41 59 3c 24 3f 5c 3b fc 9a c5 3d a9 37 0b bf
       0.013260254 0.003360697 0.096487015 -0.54381806
000090 60 da 65 3e a5 bf 4c bf a4 59 07 bf de 89 27 3e
       0.22446585 -0.79979926 -0.52871156 0.16361186
0000a0 4d 0b cc 3e 6a df 0e 3e 2b 32 fa bd d1 c5 0b bc
       0.39852372 0.13952413 -0.122166 -0.00853105
0000b0 75 a5 d3 3e 25 57 a6 3b 36 2a aa bc b5 97 0d 3f
       0.4133717 0.0050763064 -0.02077208 0.5530961
0000c0 8c 03 36 bf 01 9f 0a 3f b0 af f3 3b d0 e8 2d bc
       -0.7109916 0.5414887 0.007436715 -0.010614589
0000d0 b6 e1 1a bf d4 42 8d 3d ec 16 98 3c 3e 01 0b bb
       -0.6050066 0.06897512 0.018565618 -0.0021210457
0000e0 4e 5e 36 bf b0 8e 8d be 6e 65 57 3e b9 2b 20 be
       -0.7123765 -0.27647924 0.21034786 -0.15641679
0000f0 b2 31 c0 be 51 dd ce 3d 14 18 55 be 65 0f 4b be
       -0.37537915 0.101008065 -0.20809966 -0.19830091

encoder.2.weight f4 [16, 64]
000000 09 84 03 3d c1 97 53 bd 34 d0 a1 3e a5 6b 08 be
       0.03210834 -0.051658396 0.3160416 -0.13322313
000010 d5 42 cd 3e 85 58 16 3d 01 e2 6b bd f1 d3 0f 3d
       0.4009005 0.036705513 -0.05758858 0.035114232
000020 42 e5 24 be f0 e1 f1 3e e6 0b 35 3d f4 d6 e5 3b
       -0.1610308 0.4724269 0.0442008 0.00701415
000030 94 cd fa bd 5c cc a7 3d 67 f5 01 3e 33 a7 03 3d
       -0.12246242 0.08193275 0.1269127 0.032141875
000040 11 de a7 3d b5 3e d8 bc 06 30 00 be 68 31 33 3e
       0.08196653 -0.026397089 -0.1251832 0.17499316
000050 57 fd 9f bd a5 4d 0e 3c 96 bb fe bd 28 04 4e 3d
       -0.078119926 0.008685504 -0.12438123 0.050296932
000060 4a 52 12 3e 5e 58 d4 3e 08 18 89 be e5 f8 fc 3d
       0.14289203 0.4147367 -0.26776147 0.1235216
000070 82 fd f0 3e 9a b4 a9 be 74 a5 79 3e f6 1a 13 3e
       0.4706841 -0.331456 0.24379522 0.14365754
000080 be c3 e8 3d de 75 b1 bd 7b 7a 26 bf 48 f6 b2 3e
       0.1136546 -0.086650595 -0.6503064 0.34953523
000090 a6 0e 4d 3d 4f 5c ea 3e d8 89 d9 3e 66 97 16 bc
       0.050062798 0.4577355 0.4248798 -0.00919137
0000a0 52 ef 8b 3d 95 c5 8e 3d f6 6d 05 3e 78 05 bf 3e
       0.06832756 0.069712795 0.13030228 0.3730886
0000b0 ab 9c 89 be be 5c 20 3d fd 9e 4e be 7d d1 64 3e
       -0.2687734 0.039150946 -0.20177837 0.22345538
0000c0 64 c0 c3 3d 86 08 42 3c b2 b6 d8 bd e6 ed f0 bd
       0.0955818 0.011842852 -0.10581721 -0.117641255
0000d0 18 8c 8e 3e 90 db 61 3e 7e d6 9c 3e 89 7d 6e be
       0.27841258 0.22056413 0.30632395 -0.23290075
0000e0 33 00 88 3e 10 9d 14 bd a2 f2 cc 3e b5 0d ec 3e
       0.26562652 -0.0362826 0.40028864 0.46104208
0000f0 2c 6a 91 3c 42 5d 8a bd cb 38 d2 3d ba 03 6c 3d
       0.017750822 -0.06756069 0.10264739 0.05762074
000100 46 a0 11 bd 70 f3 5b 3e 05 10 63 3e 3f e3 d3 bd
       -0.03555324 0.21479583 0.2217408 -0.10346078
000110 51 b5 b9 bd c6 1b cf bd f6 c5 8f 3e 12 08 02 be
       -0.090677865 -0.10112719 0.2808072 -0.12698391
000120 60 9f e6 3d 2a 3e 05 3e 67 1c c5 bd 8f 97 b4 be
       0.11260867 0.13011995 -0.09624558 -0.3527188
000130 25 cb e6 3d 97 81 94 3c f0 8b 08 bd f6 e0 1b 3e
       0.112692155 0.0181282 -0.03333658 0.15222535
000140 ba 61 d9 3d 11 c6 e1 3c 54 b8 93 be da 05 3a 3e
       0.10614343 0.027560266 -0.2885157 0.18166295
000150 e2 b9 00 bc 82 03 d3 3d 70 8e d0 be 26 e1 c4 bd
       -0.007856818 0.103034034 -0.4073367 -0.09613256
000160 08 0a 01 3e 11 91 c3 bd 41 0d 3f bf 46 25 b7 bd
       0.12601483 -0.095491536 -0.746296 -0.08942656
000170 85 68 e2 3d 3d 73 2f bd af 09 8a 3c cc 51 2b 3d
       0.11055092 -0.04283451 0.01685032 0.041826054
000180 c4 24 88 3d b0 27 09 be e2 5b 60 3e 27 93 90 3d
       0.066476375 -0.13394046 0.2191005 0.07059317
000190 40 00 4c 3e 65 68 a8 bd 48 4f 4a 3e a9 0d 6b be
       0.1992197 -0.08223037 0.19756806 -0.2295443
0001a0 d4 25 30 3d bb e2 01 be 16 8e 6e bd 17 20 36 3e
       0.043004826 -0.12684147 -0.058240972 0.17785679
0001b0 93 f5 d2 3d 3d 5b e3 3d 84 7d 90 bc 8d b6 b5 3e
       0.10300746 0.11101387 -0.017637976 0.35490838
0001c0 57 0f c8 bd 61 79 8e bd 21 5c 95 3e f6 ae ff 3d
       -0.09768551 -0.06956745 0.2917185 0.12484543
0001d0 4b c2 a4 bc 69 da 8d 3d 6e 8b 61 3d d5 15 e5 bc
       -0.020112177 0.06926424 0.05506461 -0.027964512
0001e0 38 a4 bb 3d 39 0c 6f be 28 cb 53 bd dc 46 e6 3d
       0.091621816 -0.23344506 -0.051707417 0.11243984
0001f0 e6 64 1f 3b 18 65 ef 3d 0f 95 a8 bd b3 52 a5 3e
       0.0024321615 0.11689204 -0.08231556 0.32289657
000200 9a 14 c8 bd 73 00 97 bc 0b 26 31 3d 93 8b 3b 39
       -0.097695544 -0.018432831 0.04324917 0.00017885705
000210 c0 e3 03 3e 63 3d 15 bd f3 98 c4 3d 32 c4 24 bd
       0.12879848 -0.036435496 0.09599485 -0.04022617
000220 dc 46 2e 3d 3b 58 49 bd d1 b4 e4 bd fe 92 60 3d
       0.042548046 -0.04915641 -0.111673005 0.054827683
000230 c3 56 df 3c c4 eb 85 be 49 de 8a 3e 44 f7 96 3e
       0.02726305 -0.26156437 0.27122715 0.29485524
000240 52 6c ee bc 3f 35 13 3d be 00 20 bc fb 94 65 3e
       -0.029104386 0.03593945 -0.009765802 0.22420113
000250 3c 9a ce 3d 5b e5 4e 3e dd 0d 02 3e 5a 09 85 3e
       0.100880116 0.2020468 0.12700601 0.25983697
000260 ad 2d 14 3d 3e fd 69 3e d4 62 ad 3e 00 06 50 3e
       0.036176372 0.2285051 0.33864462 0.20314789
000270 1a c5 ef 3d da 74 2c bd 13 fb 03 3e 1f fc b9 3c
       0.11707516 -0.042103626 0.12888746 0.022703229
000280 7c d6 17 be 39 f8 f1 3c 8c 1e 05 be 4c b2 93 3e
       -0.14827913 0.029537307 -0.12999934 0.28846967
000290 0e c5 73 3d 4e 60 fd 3d 28 f0 0d 3c 58 89 0c 3e
       0.059514098 0.12371884 0.008663215 0.13724267
0002a0 e9 17 e1 3d 0c 14 0a bc a7 6f fc 3e 51 26 cb 3d
       0.109908886 -0.008427631 0.49303934 0.09919418
0002b0 53 97 8f 3e 45 1f 0d 3d 46 42 3e 3e 86 8a 23 3e
       0.2804514 0.03445365 0.18579969 0.15970811
0002c0 13 95 00 3e dd e4 f2 3c ff 23 b1 3e df 6e 8d bd
       0.12556867 0.029650146 0.34597775 -0.069059126
0002d0 f4 e0 8d 3e 76 d5 c6 bd 4a e6 96 3d 7d 7a 4d 3d
       0.27710688 -0.09708683 0.07368143 0.050165642
0002e0 cd 59 6d be 0e 7e 4b bc a4 43 cd 3d a8 2c ad 3e
       -0.23178788 -0.0124201905 0.10022667 0.33823133
0002f0 ac 2e cc bd 54 d2 6e bd 50 21 17 be 60 58 1d 3e
       -0.099698395 -0.058306053 -0.14758801 0.15365744
000300 af f4 49 3e 51 a3 27 bc ff d8 db 3d e3 43 cf 3d
       0.19722246 -0.010231809 0.10734748 0.1012037
000310 31 81 04 be 20 24 4b 3e f2 bf ee bd e5 0a 2f 3e
       -0.12939908 0.19838 -0.116577044 0.17094
000320 d1 28 01 3e 4c 54 4f bd d2 5a 6c 3e 44 99 fb 3d
       0.12613226 -0.0506175 0.2308152 0.122850925
000330 d4 01 a4 3d c8 33 8a 3d ff 1a e1 bd 55 c5 97 3d
       0.08008161 0.06748158 -0.10991477 0.07410685
000340 c2 e9 1a 3e cb 5f f7 3e 64 26 ca 3d c9 87 e5 3e
       0.15128234 0.48315272 0.09870604 0.44830158
000350 df 47 6a 3e 59 64 47 be 57 fa 86 3e 05 3c 26 3d
       0.22878979 -0.19471873 0.2636287 0.040584583
000360 30 bc 14 3e 3c 7e 4d bd 9d 2c d4 3e 03 47 8f 3d
       0.14524913 -0.050169215 0.41440287 0.06995966
000370 2d 14 e5 bc 99 8a c4 bd 76 48 60 3e ec 4f 36 3e
       -0.027963722 -0.09596748 0.21902642 0.17803925
000380 fb ec 3f 3e 99 2c 6d 3e 74 cf 00 be 37 52 59 3e
       0.18742745 0.23161544 -0.12579137 0.21222769
000390 f9 b6 81 3d 56 16 4b 3d 2d 0b a0 3d 69 63 35 be
       0.063337274 0.049581848 0.078146316 -0.17713703
0003a0 70 6b a7 3d 94 f0 14 3e 24 9e 48 be 92 d4 95 be
       0.08174789 0.14544898 -0.19591576 -0.2926374
0003b0 61 dc 5c 3e 72 0a 26 3e 65 f3 41 3d b8 a7 73 3d
       0.21568443 0.16214922 0.04735126 0.05948612
0003c0 46 0e 39 3e 55 5a 32 3e ef dd ba be 46 e4 15 3e
       0.18071851 0.17417271 -0.36497447 0.1463786
0003d0 5f 3a 63 3d c9 44 0a 3d 62 79 43 3e 53 f1 80 3e
       0.05547559 0.033757005 0.19089273 0.25184116
0003e0 5c e9 91 3d 37 47 ef 3d 15 0c 4d be 9b a2 36 3d
       0.07124588 0.11683505 -0.2002414 0.044588666
0003f0 a6 6d 8f 3d 1a 53 8c 3d 09 68 bc bc 6f a0 89 bd
       0.07003336 0.06851788 -0.022998827 -0.067200534

encoder.2.bias f4 [16]
000000 f7 1a 63 3d 0e d4 91 3e ad 08 e1 bc 75 72 26 3f
       0.055445638 0.28482097 -0.027469957 0.650184
000010 24 2c 1d 3f e3 05 3b 3e b4 30 20 3f 94 52 41 3e
       0.6139548 0.18263964 0.62574315 0.18879157
000020 7b 3b 25 3f 7d e7 3e 3c 22 c0 23 3f b0 29 41 bc
       0.64543885 0.011651871 0.63965046 -0.011789724
000030 84 6c 02 3e d4 d8 4b 3d 83 d7 b0 bd aa 75 3d 3e
       0.12736708 0.04976733 -0.086348556 0.18501917

encoder.4.weight f4 [4, 16]
000000 b7 fd 8d 3e aa cf ad bc 7a 8a e8 3e a7 b8 4d 3e
       0.27732632 -0.021217186 0.4541815 0.2008997
000010 6f 5f 48 3e 8b ee 25 be ca 38 36 3e a4 47 5e 3e
       0.19567655 -0.16204278 0.17795101 0.21707016
000020 b9 d2 67 3e 31 07 dd bd 8a f7 bd 3e 89 33 65 3e
       0.22638978 -0.10792387 0.3710292 0.2238294
000030 e0 b0 99 be f9 5e dc be 45 58 2f 3d 11 09 8b be
       -0.30017757 -0.43041208 0.04280879 -0.27155355
000040 83 db bf 3e 51 07 a1 3e 24 3a 3d be 5b 1d 0c 3e
       0.37472162 0.31450894 -0.1847921 0.13683073
000050 1a 66 79 3e fc 37 ab 3e a9 80 9f 3e 05 02 9d 3e
       0.24355355 0.3344115 0.31152847 0.30665603
000060 df 4a 3a 3e 9b 59 ff 3d 2a d1 f1 3d 11 4d 9b be
       0.18192624 0.12468263 0.11807473 -0.30332235
000070 ce a9 69 3e 7e 21 83 3d d3 14 a4 be 5e d0 38 3e
       0.22818682 0.064028725 -0.32047138 0.18048236
000080 5e 69 e3 38 b5 70 1a be 2e be 27 be e5 04 6a be
       0.0001084383 -0.15082057 -0.16381142 -0.2285343
000090 45 45 0d be 79 4b b2 bd ed 6c 0a be 50 d0 4d 3e
       -0.13795955 -0.087058015 -0.13518114 0.20098996
0000a0 e8 32 16 be 98 99 17 be 41 16 95 bd 65 83 99 3d
       -0.14667857 -0.14804685 -0.07279635 0.07495765
0000b0 11 64 3b 3e 15 32 16 3e 13 b4 80 be 52 c4 82 bd
       0.18299891 0.14667542 -0.25137386 -0.063851014
0000c0 58 32 06 be 95 dc 57 be 4b 4c 55 be 8b 8c c6 3e
       -0.13105142 -0.21080239 -0.20829885 0.387791
0000d0 d1 9d 15 3e 04 dd 62 3e 13 e9 f7 3d e1 46 c0 bd
       0.14610983 0.22154623 0.12105002 -0.09388519
0000e0 fc 0c 85 3e 5d 7d be 3e 34 9f ab 3e 86 dc 9c 3e
       0.2598647 0.3720502 0.335199 0.30636996
0000f0 70 49 e2 3e a3 c3 2d be 4a 84 4d 3e 87 de 22 3e
       0.44196653 -0.1696916 0.20069996 0.159052

encoder.4.bias f4 [4]
000000 11 bf 14 3f fb b7 ba 3e 3d 73 04 be dc eb a1 3e
       0.58104044 0.3646849 -0.12934585 0.3162526

decoder.0.weight f4 [16, 4]
000000 f1 a0 c9 bc 9d ce 08 3f ce 2d da 3e 33 91 85 be
       -0.024612876 0.53440267 0.4261307 -0.2608734
000010 be 70 da 3e 2a 9d ec 3c 06 ce d8 3e 8d d8 00 3f
       0.4266414 0.028883535 0.42344683 0.5033043
000020 d6 0e dc be 64 1b c4 be 58 99 5f 3e 24 3e d4 3d
       -0.4298007 -0.38302147 0.2183584 0.10363415
000030 59 f2 0e be 25 1f e0 be 06 b4 8e 3e ca 55 cd 3e
       -0.13959636 -0.4377376 0.27871722 0.40104514
000040 a0 b0 f0 3e 3e a9 02 be a5 86 0a be da 0d c9 3d
       0.47009754 -0.12759873 -0.13527925 0.09817095
000050 a2 ed ce 3d a5 93 a7 3e f6 eb 7a be a1 f9 2d be
       0.101039186 0.3272983 -0.24504074 -0.16989757
000060 08 d5 34 be 40 d9 e5 bd 5a a5 93 be 40 35 dd 3c
       -0.1765939 -0.11223078 -0.2883709 0.02700293
000070 df ce a3 3e 4f 61 92 3d 7b c1 5b be 51 3c 84 be
       0.31993768 0.071474664 -0.21460526 -0.25827268
000080 d7 76 ab be ee 48 09 3f 0d c8 b2 be e4 83 fd 3e
       -0.33489105 0.53626907 -0.34918252 0.49514687
000090 89 2a bc be 56 d1 1c 3f 96 7f 8e bd 63 d2 f9 3e
       -0.36751202 0.6125692 -0.06957929 0.48793325
0000a0 20 be 70 bd 50 e9 07 bd 1c cb e7 be 30 4b 3c be
       -0.058775067 -0.03318149 -0.45272148 -0.18388057
0000b0 c6 27 f1 3e 61 6a 31 3d 2b 73 03 3f 8b 72 99 be
       0.47100657 0.04331434 0.5134761 -0.29970202
0000c0 ad d7 e7 be cd f6 7a 3d fe ce dd 3e 61 70 23 3e
       -0.45281735 0.061270524 0.43321985 0.15960838
0000d0 20 ec 17 be 08 75 34 be 70 f6 4c be 78 a0 e4 bd
       -0.14836168 -0.17622769 -0.20015883 -0.111634195
0000e0 58 4f d4 be d1 40 91 be be d8 a3 3e b3 da 0e 3f
       -0.41466784 -0.28369763 0.320013 0.5580246
0000f0 d8 95 f5 bd 75 35 24 3f 6b 3f f5 bc 0c a4 f4 be
       -0.11991471 0.6414407 -0.029937467 -0.47781408

decoder.0.bias f4 [16]
000000 b9 1e 15 3f 85 80 64 bf e4 73 b5 be 77 65 9f 3f
       0.58250004 -0.89258605 -0.3543998 1.245284
000010 ae 80 d6 3e 54 24 8a be 76 3d 88 be fb 37 8b 3f
       0.4189505 -0.2698084 -0.2660939 1.0876459
000020 87 06 78 bf fd 9c 8c 3d b6 d9 af be 51 03 4e bf
       -0.9688496 0.06865881 -0.34345788 -0.8047381
000030 ce 39 30 3f f0 7d 58 bd 65 dd 41 3d c2 6e 9f 3f
       0.688382 -0.05285448 0.04733028 1.2455676

decoder.2.weight f4 [64, 16]
000000 53 94 94 3e f2 e3 1a bb a4 04 af 3d e4 2e 40 bf
       0.29019412 -0.00236344 0.08545807 -0.7507155
000010 78 26 b4 3e 16 d0 7a bd 54 35 ee 3d 9a 46 72 3e
       0.351856 -0.061233602 0.11631265 0.23659745
000020 0d 7d 4a be 75 9c aa be 7c 61 30 be 4c 03 26 bb
       -0.19774266 -0.33322492 -0.17224687 -0.0025331555
000030 c8 ae 3f bf 34 ff 08 be 49 17 28 bf 27 6a 23 3e
       -0.7487607 -0.13378602 -0.6566053 0.15958463
000040 09 48 04 be 2d f5 24 bf f3 b7 bc bd 39 a4 6c 3f
       -0.12918104 -0.6443661 -0.09214773 0.92438084
000050 7b ae 5f be 4f f5 f4 bd 12 06 6e be dd 82 b3 3d
       -0.21843903 -0.119608514 -0.23244503 0.087651946
000060 b0 63 29 be 93 6e 8e 3e a8 90 f0 bd aa 55 80 be
       -0.16541934 0.27818736 -0.11746341 -0.25065356
000070 e4 4a 54 3e a6 ce 26 be 39 68 af 3e 66 ac 0d bc
       0.20731694 -0.16289768 0.34259203 -0.00864706
000080 14 60 15 3d 88 d7 ff 3b eb ab 8d 3d 9b d8 ce 3e
       0.03646858 0.0078076757 0.069175564 0.40399632
000090 51 8d e1 bd a6 42 4b bf b0 5f a0 bc 1f 71 87 3d
       -0.11013282 -0.7939857 -0.019576877 0.06613373
0000a0 67 95 4a be 25 52 15 3c 24 ad a3 bd 73 9d 4c bf
       -0.19783555 0.009113823 -0.07992008 -0.7992775
0000b0 d3 52 a4 3e 62 6d 6a be 4b 7f 7b 3e 7b 73 5e 3e
       0.3209444 -0.22893289 0.24560277 0.2172374
0000c0 49 94 ec 3d bf b4 bd bd b4 90 07 bc 40 5c 9a be
       0.11551721 -0.0926299 -0.008274246 -0.30148506
0000d0 9c 0a df bd 3b 65 2d 3e a0 7c b0 bc 38 39 c7 3e
       -0.108906955 0.16933148 -0.0215438 0.38910842
0000e0 c6 74 42 bd ac c0 79 3e a6 fa 6f be 95 c8 6a be
       -0.047474645 0.24389905 -0.23435459 -0.22928078
0000f0 dd 29 3e bd 26 27 49 be f8 89 86 3d 1e 78 ab 3d
       -0.046426643 -0.1964384 0.06569284 0.0837252
000100 98 94 65 bd 1a d3 5a be 18 9e 6c be 0a 6c ca be
       -0.056049913 -0.21369591 -0.23107183 -0.39535552
000110 ba 73 99 3e 9a 88 8a 3e 06 04 08 3e a5 08 a5 3d
       0.29971105 0.27057344 0.13282785 0.080582894
000120 fd cd 88 be 3c 9b e8 be 14 de 10 3e f4 c7 ca 3e
       -0.26719657 -0.45430934 0.14147216 0.39605677
000130 7e 5c 0d 3f da 19 0b 3e 2c 66 0c be bb 90 6f bd
       0.55219257 0.1358408 -0.1371085 -0.058487635
000140 b5 75 6f 3e bf f1 b3 be bc 19 19 3e 9f b7 9c be
       0.23384745 -0.35145375 0.14951223 -0.30608842
000150 4e 1e 79 3d d8 f5 24 be d8 c2 f7 3d 49 c3 c9 3e
       0.060819916 -0.16109407 0.1209771 0.39406803
000160 43 ac 2e be 39 90 7e bd 40 8a 07 3d 6e 33 00 bc
       -0.170579 -0.06214926 0.03309083 -0.007824762
000170 c1 1c 19 3f 48 ac 5d be 8b 3f a8 3e 38 c6 9a 3e
       0.598095 -0.21647751 0.3286098 0.30229354
000180 48 7f cb 3d 0f fb 69 3e b2 9a 69 3e 50 1b 40 be
       0.09936386 0.22849678 0.22812918 -0.18760419
000190 05 88 80 3d 9e bb 4d 3e 8e c6 0a 3e 1f 66 1c be
       0.06275944 0.20091102 0.13552305 -0.15273331
0001a0 da 90 16 bd 4f f2 d0 ba ee 0e 66 be 02 ae 20 bd
       -0.036759235 -0.0015941354 -0.22466633 -0.039228447
0001b0 9d 71 8f be 7e 06 28 be da fc c4 bd 35 e0 68 be
       -0.28016368 -0.16408727 -0.0961854 -0.22741778
0001c0 73 2a 85 3c dd 21 4e 3e b4 fe be bd e8 75 a6 be
       0.016255593 0.20130105 -0.093259245 -0.3251183
0001d0 bf f3 af 3d 00 05 68 3d ae 30 5f be b8 ff fb bd
       0.08591413 0.056645393 -0.21795914 -0.12304634
0001e0 6c 54 88 3c 42 1e 03 be c0 62 03 3c d4 19 52 3d
       0.016641818 -0.12804511 0.008019149 0.051294163
0001f0 a0 43 4d be 0c cb 0f be 7f af 42 be bd ee a6 bc
       -0.20045328 -0.140423 -0.19012259 -0.020377511
000200 36 1e 18 3e 4c 94 4d bc 1e 42 25 3e ad 57 85 3e
       0.14855275 -0.012547564 0.16138503 0.26043454
000210 c7 93 9b be d2 f3 4d 3d 00 14 73 3e 57 00 93 be
       -0.30386183 0.050281353 0.23738098 -0.28711197
000220 8f 69 31 3e fb 52 74 3e 3c da 9c bd 44 fd df 3d
       0.17325424 0.2385978 -0.076588124 0.109369785
000230 24 ee b8 be 00 44 2a bc 11 09 cb bd ab b7 da 3c
       -0.36119187 -0.010392189 -0.09913839 0.026698908
000240 9d 9c 11 3e 37 fc eb 3d c4 3e 80 bd 08 5a 86 bc
       0.142199 0.115227155 -0.062619716 -0.016400352
000250 5b 82 66 3d ea 81 de 3d a0 b5 10 3e d8 1f 97 be
       0.05627666 0.10864623 0.14131784 -0.29516482
000260 5c 81 ca 3d ad dc 8a bd 5e 89 22 3e a3 52 0e be
       0.098879546 -0.06780372 0.15872714 -0.13898711
000270 94 f9 21 bf 44 b3 02 3e 0b e2 98 bd 7b e7 9a 3d
       -0.6327145 0.12763697 -0.07464989 0.07563683
000280 1c 20 a2 3d 84 12 fc 3d b4 94 04 be 1a 6d b7 be
       0.079162806 0.12308219 -0.1294735 -0.35825425
000290 5d e6 cd 3e 91 50 c9 bc e0 ee 2d bc c6 57 26 be
       0.40214816 -0.02457455 -0.010616034 -0.1624442
0002a0 dd 77 12 be 2d 7b 11 be 00 85 59 be da d0 e5 3e
       -0.14303537 -0.14207144 -0.21242142 0.44885904
0002b0 b5 84 60 3e e0 e8 45 3e 5b 2f b0 bd b6 fc 42 be
       0.21925624 0.19327116 -0.08602782 -0.19041714
0002c0 c0 21 a9 3b e4 e7 a1 bd 3a 18 20 be 1c 9d 06 be
       0.005161494 -0.07905558 -0.15634242 -0.1314587
0002d0 10 fd 89 3d d6 ad 5e be e4 7a 5e 3e 08 2b 20 be
       0.06737721 -0.21746 0.21726567 -0.15641415
0002e0 88 8f 3d bd e0 b5 01 3d d0 c1 8a 3c 6e 1a 72 be
       -0.04627946 0.03166759 0.01693812 -0.23642895
0002f0 a2 14 63 be 00 a5 25 bb 40 42 ea bd 90 e6 55 be
       -0.2217584 -0.002527535 -0.114384174 -0.20888734
000300 4b 89 33 3d ae 1d 0d 3e fc f0 92 bd 52 36 6e be
       0.043832105 0.13780853 -0.0717487 -0.23262909
000310 ba df a3 3e 8b 98 27 bd 10 c0 5e be 76 a5 f9 3d
       0.32006627 -0.04091696 -0.21752954 0.12189762
000320 35 b8 a4 3b b9 9a 8e be 40 93 67 3d ef ec d4 bd
       0.005026842 -0.2785242 0.056536913 -0.10396754
000330 7d 4a 83 ba 18 55 f1 bd b6 e2 ca bb a5 95 b3 be
       -0.0010016706 -0.117838085 -0.006191577 -0.35075107
000340 5a c6 dc 3d 4b 9e 6e 3e 68 1f c3 bd 43 81 a7 be
       0.1078002 0.23302571 -0.09527475 -0.32715806
000350 73 bd b0 3b 79 4d 17 be 60 f4 39 bc 59 7c ef 3d
       0.005393678 -0.14775647 -0.011349767 0.11693639
000360 b3 25 93 3e a3 db 35 be e8 3f 49 3d 84 77 47 3e
       0.287397 -0.17759566 0.04913321 0.19479185
000370 d2 d1 db 3e ba c6 53 3e 4c d7 9b 3d dc 5e 52 be
       0.42933518 0.20681277 0.07609424 -0.20543998
000380 c7 18 ac be e6 74 e7 3c 7e 81 4e 3d e3 f0 17 3e
       -0.33612654 0.028253984 0.050416462 0.14837985
000390 6d a9 36 3e 4b 03 b3 bd c0 4d a1 3b a2 10 9d 3c
       0.17838068 -0.087408625 0.0049225986 0.01917297
0003a0 c3 34 fd 3d 89 0e df bd 78 5c 38 bd 0a 7e 75 be
       0.12363579 -0.10891444 -0.04501006 -0.23973861
0003b0 e5 09 f5 be 1c e6 89 3d ef 14 09 3e b2 64 13 c0
       -0.4785911 0.06733343 0.13386892 -2.303021
0003c0 1f ed 80 3d 4e d7 20 3e 28 ab 45 3d 74 f5 07 be
       0.06295227 0.15707132 0.04825893 -0.13277227
0003d0 cf 53 5b 3d 82 ee 9b bc a6 83 66 be 37 52 10 3c
       0.053546723 -0.019034628 -0.22511157 0.008808664
0003e0 66 d5 a4 bd db 4e 7a bd 00 8c 19 3e 0a 73 64 be
       -0.08048515 -0.06111036 0.14994812 -0.22309509
0003f0 5e b5 dc be 70 66 36 3e 61 2a 3a 3e c5 75 6f 3d
       -0.43107122 0.17812514 0.18180229 0.058461923

decoder.2.bias f4 [64]
000000 94 f9 8f bb 3c 67 0b 3f eb d6 30 3f 44 07 a7 3d
       -0.0043937657 0.544544 0.6907794 0.08155683
000010 d3 a3 18 3f a2 ca 2a 3f ba 79 e7 be 41 64 a6 be
       0.59624976 0.66715443 -0.45210057 -0.32498363
000020 76 31 d1 3c 2c 16 98 3d 60 a7 1a bf fe 6d 49 be
       0.02553628 0.07426104 -0.60411644 -0.19670865
000030 3d 8b 74 be d2 c2 fc bd 02 af 23 3f 65 03 2f be
       -0.2388124 -0.123418465 0.63938916 -0.17091139
000040 4f 5d 7a 3d fd 6c da bc 6b 95 a3 be 4e 72 11 3f
       0.061124142 -0.026663298 -0.31949934 0.5681504
000050 5a ce 36 3f c4 de a7 bd 77 df 3b 3d 4f 9e 3a 3f
       0.7140862 -0.08196786 0.04586741 0.7289781
000060 2f c4 a2 3e 69 ad e9 3e 47 69 83 3e db 83 33 bd
       0.317903 0.45640114 0.25666258 -0.04382692
000070 a3 9b 04 3f df 19 94 bd 86 50 cc bd 66 2e 30 3f
       0.5179998 -0.07231497 -0.09976296 0.688208
000080 25 25 d0 be f7 7e 1b 3f 1d 14 21 3f 7d 26 2a 3f
       -0.4065334 0.6074061 0.62921315 0.6646498
000090 a5 2d 08 3f c0 95 11 bf 62 0b 2d 3f d7 b6 62 be
       0.5319465 -0.56869125 0.67595494 -0.2214006
0000a0 a1 d2 a5 bd d3 8a 81 be fa 4a d7 be c8 74 dd bd
       -0.08096815 -0.25301227 -0.4204939 -0.1081329
0000b0 c9 49 22 3e 5b cf c8 3e 53 76 ea be 61 ca 8b 3e
       0.1584846 0.392207 -0.457934 0.2730284
0000c0 fd 2f e8 bd 70 ff ec bd 71 70 4e 3f c4 d3 8d 3d
       -0.11337278 -0.11572158 0.8064032 0.06925157
0000d0 42 53 f9 3e 67 ea 84 be 4c c1 4f 3e 3d 9d 1b 3e
       0.48696333 -0.25960085 0.2028858 0.151967
0000e0 7f d0 15 bc f5 90 2d be 63 aa 60 3e fe e1 99 be
       -0.009143948 -0.16949828 0.21939997 -0.3005523
0000f0 94 13 09 3f 20 bc 16 3c 4a d7 93 3e 14 c9 83 3d
       0.535455 0.009200126 0.2887519 0.06434837

decoder.4.weight f4 [29, 64]
000000 54 3d 1d 3e cb 8f fe 3c f6 df e9 be 41 ea 88 be
       0.15355426 0.031074425 -0.4567868 -0.26741222
000010 84 38 05 be eb 19 07 3e c2 22 db bc 87 16 57 3c
       -0.1300984 0.1319348 -0.026749972 0.0131279295
000020 23 8b d4 bd 18 7f fe bd 26 e0 51 3d b8 91 2a 3d
       -0.10378101 -0.12426585 0.051239155 0.041642874
000030 56 e7 4a bd f7 1e 5c bd fe 5d 2e 3c cc 5f 00 be
       -0.049537025 -0.053740468 0.010642527 -0.12536544
000040 eb d8 44 3e e4 2c 3d be 13 93 7e be 04 f5 12 be
       0.19223373 -0.18474156 -0.24860792 -0.14351279
000050 f2 78 eb bd b6 1d 99 3d c6 15 6d be 20 d3 72 bc
       -0.11497678 0.0747637 -0.23152837 -0.014820844
000060 1e 3e 14 bd 6e 17 b9 be d8 32 39 3d bf 89 09 3e
       -0.036192052 -0.36150688 0.045214504 0.13431452
000070 2d 02 4b bc 2d 58 38 be c7 3f a0 be b7 a7 3b 3e
       -0.012390655 -0.18002386 -0.31298658 0.18325697
000080 ba 9b a5 3b 9b aa 26 3e c8 b0 c9 3c d8 d8 65 3c
       0.0050539644 0.16276018 0.024620429 0.01402875
000090 18 b1 16 be 2b 71 5a 3e 33 d0 ec 3e 59 a1 1e be
       -0.14715993 0.21332233 0.46252593 -0.15491237
0000a0 bd 49 97 be a4 e0 2b 3e fb 27 70 3d 40 6d 63 bd
       -0.29548445 0.16784912 0.05863188 -0.05552411
0000b0 04 ec 0d 3f 68 69 26 bd cd 85 75 be f5 84 4e be
       0.55438256 -0.040627867 -0.23976822 -0.20167907
0000c0 82 60 aa 3c 98 75 81 3d 18 57 4c 3f 18 5d f7 bd
       0.020797972 0.06321257 0.79820395 -0.12078303
0000d0 6b 44 15 3e f4 c4 97 3e d8 b7 b3 bc 3c 41 67 3e
       0.1457688 0.2964245 -0.02193825 0.22583479
0000e0 38 71 5b be 03 f5 76 bc 0c e6 bf bd 4b 2b 18 be
       -0.21429908 -0.015073064 -0.0937005 -0.14860265
0000f0 9f e0 8e 3d 37 7f ea bd 0f b5 3c bd 0e b3 e3 bd
       0.06976437 -0.114500456 -0.04607111 -0.11118136
000100 5d 36 02 3c 8a 14 3b 3e 04 96 fa 3c 86 60 b0 3d
       0.0079475315 0.18269554 0.030589111 0.086121604
000110 67 85 a3 3e 78 7e e6 3d b7 1c 1b be 2e e2 4f be
       0.31937715 0.11254591 -0.15147673 -0.20301124
000120 ad 5a ed 3d c6 c4 4d 3d 4b 97 b0 3a f8 57 c3 3d
       0.11589561 0.050236486 0.0013472823 0.09538263
000130 b7 c8 5c 3e 4d c2 43 be 0f 32 14 be 82 b5 e9 bd
       0.21560942 -0.19117089 -0.14472221 -0.11411573
000140 e3 63 45 be 35 4e 8e 3e 91 2c 6d 3e 05 d1 5c 3e
       -0.19276385 0.27794042 0.23161532 0.2156411
000150 15 3f 84 bd 1a 11 da bd 3d d8 b8 3e 46 49 d5 3e
       -0.064573444 -0.10647793 0.36102477 0.41657466
000160 53 66 23 be 6d e9 b5 be e3 f5 b7 be ad a1 17 3e
       -0.15957002 -0.35529652 -0.35929784 0.14807768
000170 e3 0f f7 bd 8e 9b 6e be 5f dc d9 3c 8f ea 99 be
       -0.12063577 -0.23301527 0.026594339 -0.30061767
000180 9c 45 33 3e c3 45 23 3e 65 51 02 3e e5 d3 a5 3d
       0.17507023 0.1594458 0.12726362 0.08097056
000190 61 7a b9 bd 48 97 0a be 29 0c 5c 3e 05 d8 9f 3d
       -0.09056545 -0.13534272 0.21489014 0.07804874
0001a0 97 09 72 bd 7e cb 31 be 17 18 54 3d 9c 1a 91 bd
       -0.059091177 -0.17362782 0.051780786 -0.070851535
0001b0 52 54 97 3e 58 ed 96 3e 56 31 b3 be 8a 0d 14 be
       0.2955652 0.29477954 -0.34998578 -0.1445829
0001c0 57 06 ab 3e 98 dc d1 3c 98 23 0d bf b2 1f 9c bd
       0.33403274 0.025617883 -0.55132437 -0.07623233
0001d0 22 ef 31 3d d3 b4 96 be af f6 bd bd 32 45 9d 3e
       0.043440945 -0.29434833 -0.09275567 0.30716854
0001e0 f8 16 33 be 49 48 07 be 69 f0 02 bb 5a c6 29 bd
       -0.1748923 -0.13211168 -0.0019979721 -0.04144893
0001f0 63 f7 f9 3e d6 95 03 be 32 7d af 3b 12 9b 64 3d
       0.48821554 -0.12850127 0.0053555006 0.05581195
000200 85 9f 9a 3e 94 61 96 bd 28 e6 49 3f c5 de 13 3e
       0.3019983 -0.0734283 0.78866816 0.14440449
000210 27 1e ca 3e 78 31 63 bd 05 e2 6d bc e3 d7 b8 bd
       0.3947613 -0.0554671 -0.014519219 -0.09025552
000220 e0 97 d9 bb 0a cd b5 bd 06 2d 92 3d f4 1a 4e bd
       -0.0066404194 -0.08876999 0.07137494 -0.050318673
000230 b0 72 2d be ec b8 1a be 4b 21 9d be 87 fa df 3d
       -0.16938281 -0.15109605 -0.30689463 0.10936456
000240 38 02 67 bd fe 9d a9 be df 26 89 be ce ca 91 3e
       -0.0563986 -0.3312835 -0.2678747 0.2847504
000250 09 52 36 3e f0 27 4b bd 66 62 e2 bd 0f 22 09 be
       0.17804731 -0.049598634 -0.11053924 -0.13391899
000260 5a a7 dd 3c 7e 3d 76 3e 44 cb 04 3e d0 ce 6a 3b
       0.027057339 0.24046895 0.12968165 0.0035828836
000270 c8 bd a4 bf d7 19 83 bf 90 6b 5b bd a2 dd a4 3e
       -1.2870417 -1.0242261 -0.053569376 0.32200342
000280 d8 4d 49 bd a9 a5 f3 be 2f 38 9d 3c ad 5a 6d be
       -0.049146503 -0.47587326 0.01919183 -0.23179121
000290 19 38 ac 3d 21 a8 c6 bd fd b4 8e 3e 7a 7b ed bd
       0.08409137 -0.09700037 0.27872458 -0.11595817
0002a0 d0 00 d6 bd 37 65 36 3c 6b e6 57 3d e8 3f aa bc
       -0.10449374 0.01113253 0.052709978 -0.020782426
0002b0 3b 2a 90 3d 1e 32 c2 bd 80 77 43 be 32 28 98 3e
       0.07039305 -0.09482215 -0.19088554 0.29718167
0002c0 75 30 ab be ee fd a8 3d f4 6d 14 3b bd 86 ba 3d
       -0.33435407 0.08251558 0.0022648545 0.091077305
0002d0 75 1e 89 3d 3c f4 02 3f 23 de 8c bd cd aa b7 bd
       0.06695262 0.5115392 -0.06878307 -0.089681245
0002e0 c0 b7 30 bd f8 81 0d be 6a bd 62 bd b8 29 1a be
       -0.043143988 -0.1381911 -0.05535642 -0.15054977
0002f0 91 61 8e be c8 4b e4 3d 38 06 a0 3d 63 d2 02 be
       -0.27808812 0.111472666 0.07813686 -0.12775569
000300 f6 28 ae be c3 33 80 3f d7 9e 9d 3e 88 19 2e be
       -0.34015626 1.0015796 0.30785248 -0.17001927
000310 eb 62 ca 3e 18 8a 5c be b5 17 65 3e b7 7b d0 3d
       0.39528593 -0.21537054 0.22372325 0.10179847
000320 1d 63 28 3e 32 30 e5 bd 29 53 4a 3e 30 f7 e9 3d
       0.16444059 -0.11190833 0.19758286 0.114241004
000330 fa d2 0b 3e 8d f1 fd bc c7 45 0f 3d b6 5f c9 bd
       0.136547 -0.03099897 0.034978654 -0.098327085
000340 f2 f9 2a bd 7e 69 25 3e 78 04 67 3d 56 c7 95 3d
       -0.041742273 0.16153523 0.056400746 0.07313411
000350 3b d3 81 be e8 c9 8a 3d 73 46 af be 82 46 5c be
       -0.2535647 0.06776792 -0.34233436 -0.21511272
000360 9b 7b 23 be ca e3 46 be 4f 93 01 be aa 42 56 3d
       -0.1596512 -0.19422832 -0.1265385 0.05230967
000370 bd 06 3e 3f db cf a8 3c 13 ec eb 3d a5 a3 a0 be
       0.7422903 0.020606926 0.11519637 -0.3137485
000380 a7 61 01 be f3 61 6a 3d 67 65 f8 3d 96 c3 0d 3d
       -0.12634908 0.057222318 0.12128716 0.034610353
000390 5e 4b 0a 3f ec 5e 27 3e b4 99 0c 3f 60 c5 92 bd
       0.5402125 0.16344804 0.5492203 -0.071665525
0003a0 59 eb 2e bc 44 d2 be 3e 79 09 3e bd a8 f7 f1 bd
       -0.010676228 0.37269795 -0.046395753 -0.11814815
0003b0 16 46 7d bf 40 c6 42 3e 26 04 a1 bc 7c 15 07 3d
       -0.9893507 0.19020939 -0.019655298 0.032979473
0003c0 1f 2d 21 3e 10 41 82 3d b8 75 1c 3e 97 65 b5 bd
       0.15739869 0.06360066 0.15279281 -0.08857267
0003d0 d4 c0 24 be 38 5b 98 be 63 3a f0 bc 4d be e0 3d
       -0.16089183 -0.29757094 -0.029324716 0.10973797
0003e0 83 77 a5 bc a9 b7 79 3e 53 3d 09 3e f5 bd d2 bb
       -0.02019859 0.24386467 0.134023 -0.006431336
0003f0 f3 39 2c bd 7d 14 80 3e 7b e1 1e 3d 34 96 d1 3c
       -0.042047452 0.2501563 0.038789254 0.025584318

decoder.4.bias f4 [29]
000000 be d1 af be dd 25 ba 3c 3b 1a 09 3f 2d d7 17 3e
       -0.34339708 0.022723133 0.5355565 0.14828177
000010 9b b0 0c 3e 75 7b 9f 3e 2b 90 32 be ef 54 64 bd
       0.13739245 0.31148878 -0.17437808 -0.05574506
000020 c3 d8 1b 3e e3 56 99 be e8 e6 0a be a0 22 d7 3d
       0.15219407 -0.29949102 -0.13564646 0.10504651
000030 e4 9e 1e be b2 18 01 3b 35 2d 27 be 78 c8 48 be
       -0.154903 0.0019698557 -0.16325839 -0.19607723
000040 fd 91 a1 bc 8d 16 2a 3d 5c 26 c9 3d a3 27 d5 3e
       -0.019722933 0.041525412 0.098217696 0.41631803
000050 08 fc f2 3d 99 1c e8 3d e7 e3 af 3e 9c 74 95 3b
       0.118644774 0.113335796 0.34353563 0.00456102
000060 18 12 8e bc 10 3a 2a bd db 42 94 bd eb c8 fb bd
       -0.017342612 -0.04155928 -0.07239314 -0.122941814
000070 22 48 e8 3d
       0.11341883
